{"format": "layers-model", "generatedBy": "keras v2.4.0", "convertedBy": "TensorFlow.js Converter v2.4.0", "modelTopology": {"keras_version": "2.4.0", "backend": "tensorflow", "model_config": {"class_name": "Functional", "config": {"name": "model", "layers": [{"class_name": "InputLayer", "config": {"batch_input_shape": [null, 32, 2048, 1], "dtype": "float32", "sparse": false, "ragged": false, "name": "input_1"}, "name": "input_1", "inbound_nodes": []}, {"class_name": "Conv2D", "config": {"name": "conv2d", "trainable": true, "dtype": "float32", "filters": 32, "kernel_size": [3, 3], "strides": [2, 2], "padding": "same", "data_format": "channels_last", "dilation_rate": [1, 1], "groups": 1, "activation": "linear", "use_bias": false, "kernel_initializer": {"class_name": "GlorotUniform", "config": {"seed": null}}, "bias_initializer": {"class_name": "Zeros", "config": {}}, "kernel_regularizer": null, "bias_regularizer": null, "activity_regularizer": null, "kernel_constraint": null, "bias_constraint": null}, "name": "conv2d", "inbound_nodes": [[["input_1", 0, 0, {}]]]}, {"class_name": "BatchNormalization", "config": {"name": "batch_normalization", "trainable": true, "dtype": "float32", "axis": [3], "momentum": 0.9997, "epsilon": 0.001, "center": true, "scale": true, "beta_initializer": {"class_name": "Zeros", "config": {}}, "gamma_initializer": {"class_name": "Ones", "config": {}}, "moving_mean_initializer": {"class_name": "Zeros", "config": {}}, "moving_variance_initializer": {"class_name": "Ones", "config": {}}, "beta_regularizer": null, "gamma_regularizer": null, "beta_constraint": null, "gamma_constraint": null}, "name": "batch_normalization", "inbound_nodes": [[["conv2d", 0, 0, {}]]]}, {"class_name": "Activation", "config": {"name": "activation", "trainable": true, "dtype": "float32", "activation": "relu"}, "name": "activation", "inbound_nodes": [[["batch_normalization", 0, 0, {}]]]}, {"class_name": "DepthwiseConv2D", "config": {"name": "depthwise_conv2d", "trainable": true, "dtype": "float32", "kernel_size": [3, 3], "strides": [1, 1], "padding": "same", "data_format": "channels_last", "dilation_rate": [1, 1], "groups": 1, "activation": "linear", "use_bias": true, "bias_initializer": {"class_name": "Zeros", "config": {}}, "bias_regularizer": null, "activity_regularizer": null, "bias_constraint": null, "depth_multiplier": 1, "depthwise_initializer": {"class_name": "GlorotUniform", "config": {"seed": null}}, "depthwise_regularizer": null, "depthwise_constraint": null}, "name": "depthwise_conv2d", "inbound_nodes": [[["activation", 0, 0, {}]]]}, {"class_name": "BatchNormalization", "config": {"name": "batch_normalization_1", "trainable": true, "dtype": "float32", "axis": [3], "momentum": 0.9997, "epsilon": 0.001, "center": true, "scale": true, "beta_initializer": {"class_name": "Zeros", "config": {}}, "gamma_initializer": {"class_name": "Ones", "config": {}}, "moving_mean_initializer": {"class_name": "Zeros", "config": {}}, "moving_variance_initializer": {"class_name": "Ones", "config": {}}, "beta_regularizer": null, "gamma_regularizer": null, "beta_constraint": null, "gamma_constraint": null}, "name": "batch_normalization_1", "inbound_nodes": [[["depthwise_conv2d", 0, 0, {}]]]}, {"class_name": "Activation", "config": {"name": "activation_1", "trainable": true, "dtype": "float32", "activation": "relu"}, "name": "activation_1", "inbound_nodes": [[["batch_normalization_1", 0, 0, {}]]]}, {"class_name": "Conv2D", "config": {"name": "conv2d_1", "trainable": true, "dtype": "float32", "filters": 32, "kernel_size": [1, 1], "strides": [1, 1], "padding": "same", "data_format": "channels_last", "dilation_rate": [1, 1], "groups": 1, "activation": "linear", "use_bias": false, "kernel_initializer": {"class_name": "GlorotUniform", "config": {"seed": null}}, "bias_initializer": {"class_name": "Zeros", "config": {}}, "kernel_regularizer": null, "bias_regularizer": null, "activity_regularizer": null, "kernel_constraint": null, "bias_constraint": null}, "name": "conv2d_1", "inbound_nodes": [[["activation_1", 0, 0, {}]]]}, {"class_name": "BatchNormalization", "config": {"name": "batch_normalization_2", "trainable": true, "dtype": "float32", "axis": [3], "momentum": 0.9997, "epsilon": 0.001, "center": true, "scale": true, "beta_initializer": {"class_name": "Zeros", "config": {}}, "gamma_initializer": {"class_name": "Ones", "config": {}}, "moving_mean_initializer": {"class_name": "Zeros", "config": {}}, "moving_variance_initializer": {"class_name": "Ones", "config": {}}, "beta_regularizer": null, "gamma_regularizer": null, "beta_constraint": null, "gamma_constraint": null}, "name": "batch_normalization_2", "inbound_nodes": [[["conv2d_1", 0, 0, {}]]]}, {"class_name": "Activation", "config": {"name": "activation_2", "trainable": true, "dtype": "float32", "activation": "relu"}, "name": "activation_2", "inbound_nodes": [[["batch_normalization_2", 0, 0, {}]]]}, {"class_name": "Conv2D", "config": {"name": "conv2d_2", "trainable": true, "dtype": "float32", "filters": 64, "kernel_size": [1, 1], "strides": [1, 1], "padding": "same", "data_format": "channels_last", "dilation_rate": [1, 1], "groups": 1, "activation": "linear", "use_bias": false, "kernel_initializer": {"class_name": "GlorotUniform", "config": {"seed": null}}, "bias_initializer": {"class_name": "Zeros", "config": {}}, "kernel_regularizer": null, "bias_regularizer": null, "activity_regularizer": null, "kernel_constraint": null, "bias_constraint": null}, "name": "conv2d_2", "inbound_nodes": [[["activation_2", 0, 0, {}]]]}, {"class_name": "BatchNormalization", "config": {"name": "batch_normalization_3", "trainable": true, "dtype": "float32", "axis": [3], "momentum": 0.9997, "epsilon": 0.001, "center": true, "scale": true, "beta_initializer": {"class_name": "Zeros", "config": {}}, "gamma_initializer": {"class_name": "Ones", "config": {}}, "moving_mean_initializer": {"class_name": "Zeros", "config": {}}, "moving_variance_initializer": {"class_name": "Ones", "config": {}}, "beta_regularizer": null, "gamma_regularizer": null, "beta_constraint": null, "gamma_constraint": null}, "name": "batch_normalization_3", "inbound_nodes": [[["conv2d_2", 0, 0, {}]]]}, {"class_name": "Activation", "config": {"name": "activation_3", "trainable": true, "dtype": "float32", "activation": "relu"}, "name": "activation_3", "inbound_nodes": [[["batch_normalization_3", 0, 0, {}]]]}, {"class_name": "DepthwiseConv2D", "config": {"name": "depthwise_conv2d_1", "trainable": true, "dtype": "float32", "kernel_size": [3, 3], "strides": [1, 1], "padding": "same", "data_format": "channels_last", "dilation_rate": [1, 1], "groups": 1, "activation": "linear", "use_bias": true, "bias_initializer": {"class_name": "Zeros", "config": {}}, "bias_regularizer": null, "activity_regularizer": null, "bias_constraint": null, "depth_multiplier": 1, "depthwise_initializer": {"class_name": "GlorotUniform", "config": {"seed": null}}, "depthwise_regularizer": null, "depthwise_constraint": null}, "name": "depthwise_conv2d_1", "inbound_nodes": [[["activation_3", 0, 0, {}]]]}, {"class_name": "BatchNormalization", "config": {"name": "batch_normalization_4", "trainable": true, "dtype": "float32", "axis": [3], "momentum": 0.9997, "epsilon": 0.001, "center": true, "scale": true, "beta_initializer": {"class_name": "Zeros", "config": {}}, "gamma_initializer": {"class_name": "Ones", "config": {}}, "moving_mean_initializer": {"class_name": "Zeros", "config": {}}, "moving_variance_initializer": {"class_name": "Ones", "config": {}}, "beta_regularizer": null, "gamma_regularizer": null, "beta_constraint": null, "gamma_constraint": null}, "name": "batch_normalization_4", "inbound_nodes": [[["depthwise_conv2d_1", 0, 0, {}]]]}, {"class_name": "Activation", "config": {"name": "activation_4", "trainable": true, "dtype": "float32", "activation": "relu"}, "name": "activation_4", "inbound_nodes": [[["batch_normalization_4", 0, 0, {}]]]}, {"class_name": "Conv2D", "config": {"name": "conv2d_3", "trainable": true, "dtype": "float32", "filters": 64, "kernel_size": [1, 1], "strides": [2, 2], "padding": "same", "data_format": "channels_last", "dilation_rate": [1, 1], "groups": 1, "activation": "linear", "use_bias": false, "kernel_initializer": {"class_name": "GlorotUniform", "config": {"seed": null}}, "bias_initializer": {"class_name": "Zeros", "config": {}}, "kernel_regularizer": null, "bias_regularizer": null, "activity_regularizer": null, "kernel_constraint": null, "bias_constraint": null}, "name": "conv2d_3", "inbound_nodes": [[["activation_4", 0, 0, {}]]]}, {"class_name": "BatchNormalization", "config": {"name": "batch_normalization_5", "trainable": true, "dtype": "float32", "axis": [3], "momentum": 0.9997, "epsilon": 0.001, "center": true, "scale": true, "beta_initializer": {"class_name": "Zeros", "config": {}}, "gamma_initializer": {"class_name": "Ones", "config": {}}, "moving_mean_initializer": {"class_name": "Zeros", "config": {}}, "moving_variance_initializer": {"class_name": "Ones", "config": {}}, "beta_regularizer": null, "gamma_regularizer": null, "beta_constraint": null, "gamma_constraint": null}, "name": "batch_normalization_5", "inbound_nodes": [[["conv2d_3", 0, 0, {}]]]}, {"class_name": "Activation", "config": {"name": "activation_5", "trainable": true, "dtype": "float32", "activation": "relu"}, "name": "activation_5", "inbound_nodes": [[["batch_normalization_5", 0, 0, {}]]]}, {"class_name": "Conv2D", "config": {"name": "conv2d_4", "trainable": true, "dtype": "float32", "filters": 128, "kernel_size": [1, 1], "strides": [1, 1], "padding": "same", "data_format": "channels_last", "dilation_rate": [1, 1], "groups": 1, "activation": "linear", "use_bias": false, "kernel_initializer": {"class_name": "GlorotUniform", "config": {"seed": null}}, "bias_initializer": {"class_name": "Zeros", "config": {}}, "kernel_regularizer": null, "bias_regularizer": null, "activity_regularizer": null, "kernel_constraint": null, "bias_constraint": null}, "name": "conv2d_4", "inbound_nodes": [[["activation_5", 0, 0, {}]]]}, {"class_name": "BatchNormalization", "config": {"name": "batch_normalization_6", "trainable": true, "dtype": "float32", "axis": [3], "momentum": 0.9997, "epsilon": 0.001, "center": true, "scale": true, "beta_initializer": {"class_name": "Zeros", "config": {}}, "gamma_initializer": {"class_name": "Ones", "config": {}}, "moving_mean_initializer": {"class_name": "Zeros", "config": {}}, "moving_variance_initializer": {"class_name": "Ones", "config": {}}, "beta_regularizer": null, "gamma_regularizer": null, "beta_constraint": null, "gamma_constraint": null}, "name": "batch_normalization_6", "inbound_nodes": [[["conv2d_4", 0, 0, {}]]]}, {"class_name": "Activation", "config": {"name": "activation_6", "trainable": true, "dtype": "float32", "activation": "relu"}, "name": "activation_6", "inbound_nodes": [[["batch_normalization_6", 0, 0, {}]]]}, {"class_name": "DepthwiseConv2D", "config": {"name": "depthwise_conv2d_2", "trainable": true, "dtype": "float32", "kernel_size": [3, 3], "strides": [1, 1], "padding": "same", "data_format": "channels_last", "dilation_rate": [1, 1], "groups": 1, "activation": "linear", "use_bias": true, "bias_initializer": {"class_name": "Zeros", "config": {}}, "bias_regularizer": null, "activity_regularizer": null, "bias_constraint": null, "depth_multiplier": 1, "depthwise_initializer": {"class_name": "GlorotUniform", "config": {"seed": null}}, "depthwise_regularizer": null, "depthwise_constraint": null}, "name": "depthwise_conv2d_2", "inbound_nodes": [[["activation_6", 0, 0, {}]]]}, {"class_name": "BatchNormalization", "config": {"name": "batch_normalization_7", "trainable": true, "dtype": "float32", "axis": [3], "momentum": 0.9997, "epsilon": 0.001, "center": true, "scale": true, "beta_initializer": {"class_name": "Zeros", "config": {}}, "gamma_initializer": {"class_name": "Ones", "config": {}}, "moving_mean_initializer": {"class_name": "Zeros", "config": {}}, "moving_variance_initializer": {"class_name": "Ones", "config": {}}, "beta_regularizer": null, "gamma_regularizer": null, "beta_constraint": null, "gamma_constraint": null}, "name": "batch_normalization_7", "inbound_nodes": [[["depthwise_conv2d_2", 0, 0, {}]]]}, {"class_name": "Activation", "config": {"name": "activation_7", "trainable": true, "dtype": "float32", "activation": "relu"}, "name": "activation_7", "inbound_nodes": [[["batch_normalization_7", 0, 0, {}]]]}, {"class_name": "Conv2D", "config": {"name": "conv2d_5", "trainable": true, "dtype": "float32", "filters": 128, "kernel_size": [1, 1], "strides": [1, 1], "padding": "same", "data_format": "channels_last", "dilation_rate": [1, 1], "groups": 1, "activation": "linear", "use_bias": false, "kernel_initializer": {"class_name": "GlorotUniform", "config": {"seed": null}}, "bias_initializer": {"class_name": "Zeros", "config": {}}, "kernel_regularizer": null, "bias_regularizer": null, "activity_regularizer": null, "kernel_constraint": null, "bias_constraint": null}, "name": "conv2d_5", "inbound_nodes": [[["activation_7", 0, 0, {}]]]}, {"class_name": "BatchNormalization", "config": {"name": "batch_normalization_8", "trainable": true, "dtype": "float32", "axis": [3], "momentum": 0.9997, "epsilon": 0.001, "center": true, "scale": true, "beta_initializer": {"class_name": "Zeros", "config": {}}, "gamma_initializer": {"class_name": "Ones", "config": {}}, "moving_mean_initializer": {"class_name": "Zeros", "config": {}}, "moving_variance_initializer": {"class_name": "Ones", "config": {}}, "beta_regularizer": null, "gamma_regularizer": null, "beta_constraint": null, "gamma_constraint": null}, "name": "batch_normalization_8", "inbound_nodes": [[["conv2d_5", 0, 0, {}]]]}, {"class_name": "Activation", "config": {"name": "activation_8", "trainable": true, "dtype": "float32", "activation": "relu"}, "name": "activation_8", "inbound_nodes": [[["batch_normalization_8", 0, 0, {}]]]}, {"class_name": "Conv2D", "config": {"name": "conv2d_6", "trainable": true, "dtype": "float32", "filters": 128, "kernel_size": [1, 1], "strides": [1, 1], "padding": "same", "data_format": "channels_last", "dilation_rate": [1, 1], "groups": 1, "activation": "linear", "use_bias": false, "kernel_initializer": {"class_name": "GlorotUniform", "config": {"seed": null}}, "bias_initializer": {"class_name": "Zeros", "config": {}}, "kernel_regularizer": null, "bias_regularizer": null, "activity_regularizer": null, "kernel_constraint": null, "bias_constraint": null}, "name": "conv2d_6", "inbound_nodes": [[["activation_8", 0, 0, {}]]]}, {"class_name": "BatchNormalization", "config": {"name": "batch_normalization_9", "trainable": true, "dtype": "float32", "axis": [3], "momentum": 0.9997, "epsilon": 0.001, "center": true, "scale": true, "beta_initializer": {"class_name": "Zeros", "config": {}}, "gamma_initializer": {"class_name": "Ones", "config": {}}, "moving_mean_initializer": {"class_name": "Zeros", "config": {}}, "moving_variance_initializer": {"class_name": "Ones", "config": {}}, "beta_regularizer": null, "gamma_regularizer": null, "beta_constraint": null, "gamma_constraint": null}, "name": "batch_normalization_9", "inbound_nodes": [[["conv2d_6", 0, 0, {}]]]}, {"class_name": "Activation", "config": {"name": "activation_9", "trainable": true, "dtype": "float32", "activation": "relu"}, "name": "activation_9", "inbound_nodes": [[["batch_normalization_9", 0, 0, {}]]]}, {"class_name": "DepthwiseConv2D", "config": {"name": "depthwise_conv2d_3", "trainable": true, "dtype": "float32", "kernel_size": [3, 3], "strides": [1, 1], "padding": "same", "data_format": "channels_last", "dilation_rate": [1, 1], "groups": 1, "activation": "linear", "use_bias": true, "bias_initializer": {"class_name": "Zeros", "config": {}}, "bias_regularizer": null, "activity_regularizer": null, "bias_constraint": null, "depth_multiplier": 1, "depthwise_initializer": {"class_name": "GlorotUniform", "config": {"seed": null}}, "depthwise_regularizer": null, "depthwise_constraint": null}, "name": "depthwise_conv2d_3", "inbound_nodes": [[["activation_9", 0, 0, {}]]]}, {"class_name": "BatchNormalization", "config": {"name": "batch_normalization_10", "trainable": true, "dtype": "float32", "axis": [3], "momentum": 0.9997, "epsilon": 0.001, "center": true, "scale": true, "beta_initializer": {"class_name": "Zeros", "config": {}}, "gamma_initializer": {"class_name": "Ones", "config": {}}, "moving_mean_initializer": {"class_name": "Zeros", "config": {}}, "moving_variance_initializer": {"class_name": "Ones", "config": {}}, "beta_regularizer": null, "gamma_regularizer": null, "beta_constraint": null, "gamma_constraint": null}, "name": "batch_normalization_10", "inbound_nodes": [[["depthwise_conv2d_3", 0, 0, {}]]]}, {"class_name": "Activation", "config": {"name": "activation_10", "trainable": true, "dtype": "float32", "activation": "relu"}, "name": "activation_10", "inbound_nodes": [[["batch_normalization_10", 0, 0, {}]]]}, {"class_name": "Conv2D", "config": {"name": "conv2d_7", "trainable": true, "dtype": "float32", "filters": 128, "kernel_size": [1, 1], "strides": [2, 2], "padding": "same", "data_format": "channels_last", "dilation_rate": [1, 1], "groups": 1, "activation": "linear", "use_bias": false, "kernel_initializer": {"class_name": "GlorotUniform", "config": {"seed": null}}, "bias_initializer": {"class_name": "Zeros", "config": {}}, "kernel_regularizer": null, "bias_regularizer": null, "activity_regularizer": null, "kernel_constraint": null, "bias_constraint": null}, "name": "conv2d_7", "inbound_nodes": [[["activation_10", 0, 0, {}]]]}, {"class_name": "BatchNormalization", "config": {"name": "batch_normalization_11", "trainable": true, "dtype": "float32", "axis": [3], "momentum": 0.9997, "epsilon": 0.001, "center": true, "scale": true, "beta_initializer": {"class_name": "Zeros", "config": {}}, "gamma_initializer": {"class_name": "Ones", "config": {}}, "moving_mean_initializer": {"class_name": "Zeros", "config": {}}, "moving_variance_initializer": {"class_name": "Ones", "config": {}}, "beta_regularizer": null, "gamma_regularizer": null, "beta_constraint": null, "gamma_constraint": null}, "name": "batch_normalization_11", "inbound_nodes": [[["conv2d_7", 0, 0, {}]]]}, {"class_name": "Activation", "config": {"name": "activation_11", "trainable": true, "dtype": "float32", "activation": "relu"}, "name": "activation_11", "inbound_nodes": [[["batch_normalization_11", 0, 0, {}]]]}, {"class_name": "Conv2D", "config": {"name": "conv2d_8", "trainable": true, "dtype": "float32", "filters": 256, "kernel_size": [1, 1], "strides": [1, 1], "padding": "same", "data_format": "channels_last", "dilation_rate": [1, 1], "groups": 1, "activation": "linear", "use_bias": false, "kernel_initializer": {"class_name": "GlorotUniform", "config": {"seed": null}}, "bias_initializer": {"class_name": "Zeros", "config": {}}, "kernel_regularizer": null, "bias_regularizer": null, "activity_regularizer": null, "kernel_constraint": null, "bias_constraint": null}, "name": "conv2d_8", "inbound_nodes": [[["activation_11", 0, 0, {}]]]}, {"class_name": "BatchNormalization", "config": {"name": "batch_normalization_12", "trainable": true, "dtype": "float32", "axis": [3], "momentum": 0.9997, "epsilon": 0.001, "center": true, "scale": true, "beta_initializer": {"class_name": "Zeros", "config": {}}, "gamma_initializer": {"class_name": "Ones", "config": {}}, "moving_mean_initializer": {"class_name": "Zeros", "config": {}}, "moving_variance_initializer": {"class_name": "Ones", "config": {}}, "beta_regularizer": null, "gamma_regularizer": null, "beta_constraint": null, "gamma_constraint": null}, "name": "batch_normalization_12", "inbound_nodes": [[["conv2d_8", 0, 0, {}]]]}, {"class_name": "Activation", "config": {"name": "activation_12", "trainable": true, "dtype": "float32", "activation": "relu"}, "name": "activation_12", "inbound_nodes": [[["batch_normalization_12", 0, 0, {}]]]}, {"class_name": "DepthwiseConv2D", "config": {"name": "depthwise_conv2d_4", "trainable": true, "dtype": "float32", "kernel_size": [3, 3], "strides": [1, 1], "padding": "same", "data_format": "channels_last", "dilation_rate": [1, 1], "groups": 1, "activation": "linear", "use_bias": true, "bias_initializer": {"class_name": "Zeros", "config": {}}, "bias_regularizer": null, "activity_regularizer": null, "bias_constraint": null, "depth_multiplier": 1, "depthwise_initializer": {"class_name": "GlorotUniform", "config": {"seed": null}}, "depthwise_regularizer": null, "depthwise_constraint": null}, "name": "depthwise_conv2d_4", "inbound_nodes": [[["activation_12", 0, 0, {}]]]}, {"class_name": "BatchNormalization", "config": {"name": "batch_normalization_13", "trainable": true, "dtype": "float32", "axis": [3], "momentum": 0.9997, "epsilon": 0.001, "center": true, "scale": true, "beta_initializer": {"class_name": "Zeros", "config": {}}, "gamma_initializer": {"class_name": "Ones", "config": {}}, "moving_mean_initializer": {"class_name": "Zeros", "config": {}}, "moving_variance_initializer": {"class_name": "Ones", "config": {}}, "beta_regularizer": null, "gamma_regularizer": null, "beta_constraint": null, "gamma_constraint": null}, "name": "batch_normalization_13", "inbound_nodes": [[["depthwise_conv2d_4", 0, 0, {}]]]}, {"class_name": "Activation", "config": {"name": "activation_13", "trainable": true, "dtype": "float32", "activation": "relu"}, "name": "activation_13", "inbound_nodes": [[["batch_normalization_13", 0, 0, {}]]]}, {"class_name": "Conv2D", "config": {"name": "conv2d_9", "trainable": true, "dtype": "float32", "filters": 256, "kernel_size": [1, 1], "strides": [1, 1], "padding": "same", "data_format": "channels_last", "dilation_rate": [1, 1], "groups": 1, "activation": "linear", "use_bias": false, "kernel_initializer": {"class_name": "GlorotUniform", "config": {"seed": null}}, "bias_initializer": {"class_name": "Zeros", "config": {}}, "kernel_regularizer": null, "bias_regularizer": null, "activity_regularizer": null, "kernel_constraint": null, "bias_constraint": null}, "name": "conv2d_9", "inbound_nodes": [[["activation_13", 0, 0, {}]]]}, {"class_name": "BatchNormalization", "config": {"name": "batch_normalization_14", "trainable": true, "dtype": "float32", "axis": [3], "momentum": 0.9997, "epsilon": 0.001, "center": true, "scale": true, "beta_initializer": {"class_name": "Zeros", "config": {}}, "gamma_initializer": {"class_name": "Ones", "config": {}}, "moving_mean_initializer": {"class_name": "Zeros", "config": {}}, "moving_variance_initializer": {"class_name": "Ones", "config": {}}, "beta_regularizer": null, "gamma_regularizer": null, "beta_constraint": null, "gamma_constraint": null}, "name": "batch_normalization_14", "inbound_nodes": [[["conv2d_9", 0, 0, {}]]]}, {"class_name": "Activation", "config": {"name": "activation_14", "trainable": true, "dtype": "float32", "activation": "relu"}, "name": "activation_14", "inbound_nodes": [[["batch_normalization_14", 0, 0, {}]]]}, {"class_name": "Conv2D", "config": {"name": "conv2d_10", "trainable": true, "dtype": "float32", "filters": 256, "kernel_size": [1, 1], "strides": [1, 1], "padding": "same", "data_format": "channels_last", "dilation_rate": [1, 1], "groups": 1, "activation": "linear", "use_bias": false, "kernel_initializer": {"class_name": "GlorotUniform", "config": {"seed": null}}, "bias_initializer": {"class_name": "Zeros", "config": {}}, "kernel_regularizer": null, "bias_regularizer": null, "activity_regularizer": null, "kernel_constraint": null, "bias_constraint": null}, "name": "conv2d_10", "inbound_nodes": [[["activation_14", 0, 0, {}]]]}, {"class_name": "BatchNormalization", "config": {"name": "batch_normalization_15", "trainable": true, "dtype": "float32", "axis": [3], "momentum": 0.9997, "epsilon": 0.001, "center": true, "scale": true, "beta_initializer": {"class_name": "Zeros", "config": {}}, "gamma_initializer": {"class_name": "Ones", "config": {}}, "moving_mean_initializer": {"class_name": "Zeros", "config": {}}, "moving_variance_initializer": {"class_name": "Ones", "config": {}}, "beta_regularizer": null, "gamma_regularizer": null, "beta_constraint": null, "gamma_constraint": null}, "name": "batch_normalization_15", "inbound_nodes": [[["conv2d_10", 0, 0, {}]]]}, {"class_name": "Activation", "config": {"name": "activation_15", "trainable": true, "dtype": "float32", "activation": "relu"}, "name": "activation_15", "inbound_nodes": [[["batch_normalization_15", 0, 0, {}]]]}, {"class_name": "DepthwiseConv2D", "config": {"name": "depthwise_conv2d_5", "trainable": true, "dtype": "float32", "kernel_size": [3, 3], "strides": [1, 1], "padding": "same", "data_format": "channels_last", "dilation_rate": [1, 1], "groups": 1, "activation": "linear", "use_bias": true, "bias_initializer": {"class_name": "Zeros", "config": {}}, "bias_regularizer": null, "activity_regularizer": null, "bias_constraint": null, "depth_multiplier": 1, "depthwise_initializer": {"class_name": "GlorotUniform", "config": {"seed": null}}, "depthwise_regularizer": null, "depthwise_constraint": null}, "name": "depthwise_conv2d_5", "inbound_nodes": [[["activation_15", 0, 0, {}]]]}, {"class_name": "BatchNormalization", "config": {"name": "batch_normalization_16", "trainable": true, "dtype": "float32", "axis": [3], "momentum": 0.9997, "epsilon": 0.001, "center": true, "scale": true, "beta_initializer": {"class_name": "Zeros", "config": {}}, "gamma_initializer": {"class_name": "Ones", "config": {}}, "moving_mean_initializer": {"class_name": "Zeros", "config": {}}, "moving_variance_initializer": {"class_name": "Ones", "config": {}}, "beta_regularizer": null, "gamma_regularizer": null, "beta_constraint": null, "gamma_constraint": null}, "name": "batch_normalization_16", "inbound_nodes": [[["depthwise_conv2d_5", 0, 0, {}]]]}, {"class_name": "Activation", "config": {"name": "activation_16", "trainable": true, "dtype": "float32", "activation": "relu"}, "name": "activation_16", "inbound_nodes": [[["batch_normalization_16", 0, 0, {}]]]}, {"class_name": "Conv2D", "config": {"name": "conv2d_11", "trainable": true, "dtype": "float32", "filters": 256, "kernel_size": [1, 1], "strides": [2, 2], "padding": "same", "data_format": "channels_last", "dilation_rate": [1, 1], "groups": 1, "activation": "linear", "use_bias": false, "kernel_initializer": {"class_name": "GlorotUniform", "config": {"seed": null}}, "bias_initializer": {"class_name": "Zeros", "config": {}}, "kernel_regularizer": null, "bias_regularizer": null, "activity_regularizer": null, "kernel_constraint": null, "bias_constraint": null}, "name": "conv2d_11", "inbound_nodes": [[["activation_16", 0, 0, {}]]]}, {"class_name": "BatchNormalization", "config": {"name": "batch_normalization_17", "trainable": true, "dtype": "float32", "axis": [3], "momentum": 0.9997, "epsilon": 0.001, "center": true, "scale": true, "beta_initializer": {"class_name": "Zeros", "config": {}}, "gamma_initializer": {"class_name": "Ones", "config": {}}, "moving_mean_initializer": {"class_name": "Zeros", "config": {}}, "moving_variance_initializer": {"class_name": "Ones", "config": {}}, "beta_regularizer": null, "gamma_regularizer": null, "beta_constraint": null, "gamma_constraint": null}, "name": "batch_normalization_17", "inbound_nodes": [[["conv2d_11", 0, 0, {}]]]}, {"class_name": "Activation", "config": {"name": "activation_17", "trainable": true, "dtype": "float32", "activation": "relu"}, "name": "activation_17", "inbound_nodes": [[["batch_normalization_17", 0, 0, {}]]]}, {"class_name": "Conv2D", "config": {"name": "conv2d_12", "trainable": true, "dtype": "float32", "filters": 512, "kernel_size": [1, 1], "strides": [1, 1], "padding": "same", "data_format": "channels_last", "dilation_rate": [1, 1], "groups": 1, "activation": "linear", "use_bias": false, "kernel_initializer": {"class_name": "GlorotUniform", "config": {"seed": null}}, "bias_initializer": {"class_name": "Zeros", "config": {}}, "kernel_regularizer": null, "bias_regularizer": null, "activity_regularizer": null, "kernel_constraint": null, "bias_constraint": null}, "name": "conv2d_12", "inbound_nodes": [[["activation_17", 0, 0, {}]]]}, {"class_name": "BatchNormalization", "config": {"name": "batch_normalization_18", "trainable": true, "dtype": "float32", "axis": [3], "momentum": 0.9997, "epsilon": 0.001, "center": true, "scale": true, "beta_initializer": {"class_name": "Zeros", "config": {}}, "gamma_initializer": {"class_name": "Ones", "config": {}}, "moving_mean_initializer": {"class_name": "Zeros", "config": {}}, "moving_variance_initializer": {"class_name": "Ones", "config": {}}, "beta_regularizer": null, "gamma_regularizer": null, "beta_constraint": null, "gamma_constraint": null}, "name": "batch_normalization_18", "inbound_nodes": [[["conv2d_12", 0, 0, {}]]]}, {"class_name": "Activation", "config": {"name": "activation_18", "trainable": true, "dtype": "float32", "activation": "relu"}, "name": "activation_18", "inbound_nodes": [[["batch_normalization_18", 0, 0, {}]]]}, {"class_name": "DepthwiseConv2D", "config": {"name": "depthwise_conv2d_6", "trainable": true, "dtype": "float32", "kernel_size": [3, 3], "strides": [1, 1], "padding": "same", "data_format": "channels_last", "dilation_rate": [1, 1], "groups": 1, "activation": "linear", "use_bias": true, "bias_initializer": {"class_name": "Zeros", "config": {}}, "bias_regularizer": null, "activity_regularizer": null, "bias_constraint": null, "depth_multiplier": 1, "depthwise_initializer": {"class_name": "GlorotUniform", "config": {"seed": null}}, "depthwise_regularizer": null, "depthwise_constraint": null}, "name": "depthwise_conv2d_6", "inbound_nodes": [[["activation_18", 0, 0, {}]]]}, {"class_name": "BatchNormalization", "config": {"name": "batch_normalization_19", "trainable": true, "dtype": "float32", "axis": [3], "momentum": 0.9997, "epsilon": 0.001, "center": true, "scale": true, "beta_initializer": {"class_name": "Zeros", "config": {}}, "gamma_initializer": {"class_name": "Ones", "config": {}}, "moving_mean_initializer": {"class_name": "Zeros", "config": {}}, "moving_variance_initializer": {"class_name": "Ones", "config": {}}, "beta_regularizer": null, "gamma_regularizer": null, "beta_constraint": null, "gamma_constraint": null}, "name": "batch_normalization_19", "inbound_nodes": [[["depthwise_conv2d_6", 0, 0, {}]]]}, {"class_name": "Activation", "config": {"name": "activation_19", "trainable": true, "dtype": "float32", "activation": "relu"}, "name": "activation_19", "inbound_nodes": [[["batch_normalization_19", 0, 0, {}]]]}, {"class_name": "Conv2D", "config": {"name": "conv2d_13", "trainable": true, "dtype": "float32", "filters": 512, "kernel_size": [1, 1], "strides": [2, 2], "padding": "same", "data_format": "channels_last", "dilation_rate": [1, 1], "groups": 1, "activation": "linear", "use_bias": false, "kernel_initializer": {"class_name": "GlorotUniform", "config": {"seed": null}}, "bias_initializer": {"class_name": "Zeros", "config": {}}, "kernel_regularizer": null, "bias_regularizer": null, "activity_regularizer": null, "kernel_constraint": null, "bias_constraint": null}, "name": "conv2d_13", "inbound_nodes": [[["activation_19", 0, 0, {}]]]}, {"class_name": "BatchNormalization", "config": {"name": "batch_normalization_20", "trainable": true, "dtype": "float32", "axis": [3], "momentum": 0.9997, "epsilon": 0.001, "center": true, "scale": true, "beta_initializer": {"class_name": "Zeros", "config": {}}, "gamma_initializer": {"class_name": "Ones", "config": {}}, "moving_mean_initializer": {"class_name": "Zeros", "config": {}}, "moving_variance_initializer": {"class_name": "Ones", "config": {}}, "beta_regularizer": null, "gamma_regularizer": null, "beta_constraint": null, "gamma_constraint": null}, "name": "batch_normalization_20", "inbound_nodes": [[["conv2d_13", 0, 0, {}]]]}, {"class_name": "Activation", "config": {"name": "activation_20", "trainable": true, "dtype": "float32", "activation": "relu"}, "name": "activation_20", "inbound_nodes": [[["batch_normalization_20", 0, 0, {}]]]}, {"class_name": "Conv2D", "config": {"name": "conv2d_14", "trainable": true, "dtype": "float32", "filters": 1024, "kernel_size": [1, 1], "strides": [1, 1], "padding": "same", "data_format": "channels_last", "dilation_rate": [1, 1], "groups": 1, "activation": "linear", "use_bias": false, "kernel_initializer": {"class_name": "GlorotUniform", "config": {"seed": null}}, "bias_initializer": {"class_name": "Zeros", "config": {}}, "kernel_regularizer": null, "bias_regularizer": null, "activity_regularizer": null, "kernel_constraint": null, "bias_constraint": null}, "name": "conv2d_14", "inbound_nodes": [[["activation_20", 0, 0, {}]]]}, {"class_name": "BatchNormalization", "config": {"name": "batch_normalization_21", "trainable": true, "dtype": "float32", "axis": [3], "momentum": 0.9997, "epsilon": 0.001, "center": true, "scale": true, "beta_initializer": {"class_name": "Zeros", "config": {}}, "gamma_initializer": {"class_name": "Ones", "config": {}}, "moving_mean_initializer": {"class_name": "Zeros", "config": {}}, "moving_variance_initializer": {"class_name": "Ones", "config": {}}, "beta_regularizer": null, "gamma_regularizer": null, "beta_constraint": null, "gamma_constraint": null}, "name": "batch_normalization_21", "inbound_nodes": [[["conv2d_14", 0, 0, {}]]]}, {"class_name": "Activation", "config": {"name": "activation_21", "trainable": true, "dtype": "float32", "activation": "relu"}, "name": "activation_21", "inbound_nodes": [[["batch_normalization_21", 0, 0, {}]]]}, {"class_name": "AveragePooling2D", "config": {"name": "average_pooling2d", "trainable": true, "dtype": "float32", "pool_size": [1, 1], "padding": "valid", "strides": [1, 1], "data_format": "channels_last"}, "name": "average_pooling2d", "inbound_nodes": [[["activation_21", 0, 0, {}]]]}, {"class_name": "Flatten", "config": {"name": "flatten", "trainable": true, "dtype": "float32", "data_format": "channels_last"}, "name": "flatten", "inbound_nodes": [[["average_pooling2d", 0, 0, {}]]]}, {"class_name": "Dense", "config": {"name": "dense", "trainable": true, "dtype": "float32", "units": 1, "activation": "linear", "use_bias": true, "kernel_initializer": {"class_name": "GlorotUniform", "config": {"seed": null}}, "bias_initializer": {"class_name": "Zeros", "config": {}}, "kernel_regularizer": null, "bias_regularizer": null, "activity_regularizer": null, "kernel_constraint": null, "bias_constraint": null}, "name": "dense", "inbound_nodes": [[["flatten", 0, 0, {}]]]}], "input_layers": [["input_1", 0, 0]], "output_layers": [["dense", 0, 0]]}}, "training_config": {"loss": "mean_absolute_error", "metrics": ["mean_absolute_error", "mean_squared_error"], "weighted_metrics": null, "loss_weights": null, "optimizer_config": {"class_name": "Adam", "config": {"name": "Adam", "learning_rate": 9.999999747378752e-05, "decay": 0.0, "beta_1": 0.8999999761581421, "beta_2": 0.9990000128746033, "epsilon": 1e-07, "amsgrad": false}}}}, "weightsManifest": [{"paths": ["group1-shard1of1.bin"], "weights": [{"name": "batch_normalization/gamma", "shape": [32], "dtype": "float32", "quantization": {"dtype": "uint8", "min": 0.8917937874794006, "scale": 0.0006625612576802571, "original_dtype": "float32"}}, {"name": "batch_normalization/beta", "shape": [32], "dtype": "float32", "quantization": {"dtype": "uint8", "min": -0.04727966615966722, "scale": 0.0011531625892601761, "original_dtype": "float32"}}, {"name": "batch_normalization/moving_mean", "shape": [32], "dtype": "float32", "quantization": {"dtype": "uint8", "min": -0.16775821470746807, "scale": 0.0011982729621962005, "original_dtype": "float32"}}, {"name": "batch_normalization/moving_variance", "shape": [32], "dtype": "float32", "quantization": {"dtype": "uint8", "min": 0.00015918159624561667, "scale": 5.9315270296864064e-05, "original_dtype": "float32"}}, {"name": "batch_normalization_1/gamma", "shape": [32], "dtype": "float32", "quantization": {"dtype": "uint8", "min": 0.8960686326026917, "scale": 0.0013461105963763068, "original_dtype": "float32"}}, {"name": "batch_normalization_1/beta", "shape": [32], "dtype": "float32", "quantization": {"dtype": "uint8", "min": -0.09169458431356094, "scale": 0.0016980478576585358, "original_dtype": "float32"}}, {"name": "batch_normalization_1/moving_mean", "shape": [32], "dtype": "float32", "quantization": {"dtype": "uint8", "min": -0.21042059887857997, "scale": 0.0017107365762486176, "original_dtype": "float32"}}, {"name": "batch_normalization_1/moving_variance", "shape": [32], "dtype": "float32", "quantization": {"dtype": "uint8", "min": 0.0011625189799815416, "scale": 0.00041422780657954076, "original_dtype": "float32"}}, {"name": "batch_normalization_10/gamma", "shape": [128], "dtype": "float32", "quantization": {"dtype": "uint8", "min": 0.8022289872169495, "scale": 0.0012832040880240646, "original_dtype": "float32"}}, {"name": "batch_normalization_10/beta", "shape": [128], "dtype": "float32", "quantization": {"dtype": "uint8", "min": -0.1544602616744883, "scale": 0.0014435538474251242, "original_dtype": "float32"}}, {"name": "batch_normalization_10/moving_mean", "shape": [128], "dtype": "float32", "quantization": {"dtype": "uint8", "min": -0.22737223751404706, "scale": 0.0017095656955943388, "original_dtype": "float32"}}, {"name": "batch_normalization_10/moving_variance", "shape": [128], "dtype": "float32", "quantization": {"dtype": "uint8", "min": 0.0006427246262319386, "scale": 0.0002451787673064745, "original_dtype": "float32"}}, {"name": "batch_normalization_11/gamma", "shape": [128], "dtype": "float32", "quantization": {"dtype": "uint8", "min": 0.9095439314842224, "scale": 0.0006849141681895537, "original_dtype": "float32"}}, {"name": "batch_normalization_11/beta", "shape": [128], "dtype": "float32", "quantization": {"dtype": "uint8", "min": -0.1595606619236516, "scale": 0.001049741196866129, "original_dtype": "float32"}}, {"name": "batch_normalization_11/moving_mean", "shape": [128], "dtype": "float32", "quantization": {"dtype": "uint8", "min": -0.9653870098731097, "scale": 0.007848674877017152, "original_dtype": "float32"}}, {"name": "batch_normalization_11/moving_variance", "shape": [128], "dtype": "float32", "quantization": {"dtype": "uint8", "min": 0.44822046160697937, "scale": 0.004700253640904146, "original_dtype": "float32"}}, {"name": "batch_normalization_12/gamma", "shape": [256], "dtype": "float32", "quantization": {"dtype": "uint8", "min": 0.8613139986991882, "scale": 0.000936437354368322, "original_dtype": "float32"}}, {"name": "batch_normalization_12/beta", "shape": [256], "dtype": "float32", "quantization": {"dtype": "uint8", "min": -0.10329354569023731, "scale": 0.0011350939086839265, "original_dtype": "float32"}}, {"name": "batch_normalization_12/moving_mean", "shape": [256], "dtype": "float32", "quantization": {"dtype": "uint8", "min": -1.2511213176390705, "scale": 0.009267565315844967, "original_dtype": "float32"}}, {"name": "batch_normalization_12/moving_variance", "shape": [256], "dtype": "float32", "quantization": {"dtype": "uint8", "min": 0.25429174304008484, "scale": 0.008595813606299607, "original_dtype": "float32"}}, {"name": "batch_normalization_13/gamma", "shape": [256], "dtype": "float32", "quantization": {"dtype": "uint8", "min": 0.8576006889343262, "scale": 0.0011071209814034256, "original_dtype": "float32"}}, {"name": "batch_normalization_13/beta", "shape": [256], "dtype": "float32", "quantization": {"dtype": "uint8", "min": -0.15285988923381358, "scale": 0.0011849603816574696, "original_dtype": "float32"}}, {"name": "batch_normalization_13/moving_mean", "shape": [256], "dtype": "float32", "quantization": {"dtype": "uint8", "min": -0.20211861297196035, "scale": 0.0014437043783711453, "original_dtype": "float32"}}, {"name": "batch_normalization_13/moving_variance", "shape": [256], "dtype": "float32", "quantization": {"dtype": "uint8", "min": 0.0008781188516877592, "scale": 0.00016002754027973496, "original_dtype": "float32"}}, {"name": "batch_normalization_14/gamma", "shape": [256], "dtype": "float32", "quantization": {"dtype": "uint8", "min": 0.8995044231414795, "scale": 0.0007338168574314492, "original_dtype": "float32"}}, {"name": "batch_normalization_14/beta", "shape": [256], "dtype": "float32", "quantization": {"dtype": "uint8", "min": -0.11354928735424491, "scale": 0.0007373330347678241, "original_dtype": "float32"}}, {"name": "batch_normalization_14/moving_mean", "shape": [256], "dtype": "float32", "quantization": {"dtype": "uint8", "min": -1.5917711650623994, "scale": 0.01090254222645479, "original_dtype": "float32"}}, {"name": "batch_normalization_14/moving_variance", "shape": [256], "dtype": "float32", "quantization": {"dtype": "uint8", "min": 0.46753692626953125, "scale": 0.007813832339118509, "original_dtype": "float32"}}, {"name": "batch_normalization_15/gamma", "shape": [256], "dtype": "float32", "quantization": {"dtype": "uint8", "min": 0.8598309755325317, "scale": 0.0012080113093058268, "original_dtype": "float32"}}, {"name": "batch_normalization_15/beta", "shape": [256], "dtype": "float32", "quantization": {"dtype": "uint8", "min": -0.09622894391125324, "scale": 0.0009819279990944208, "original_dtype": "float32"}}, {"name": "batch_normalization_15/moving_mean", "shape": [256], "dtype": "float32", "quantization": {"dtype": "uint8", "min": -2.02098054745618, "scale": 0.01413273110109217, "original_dtype": "float32"}}, {"name": "batch_normalization_15/moving_variance", "shape": [256], "dtype": "float32", "quantization": {"dtype": "uint8", "min": 0.6067975163459778, "scale": 0.010192822241315654, "original_dtype": "float32"}}, {"name": "batch_normalization_16/gamma", "shape": [256], "dtype": "float32", "quantization": {"dtype": "uint8", "min": 0.8498532772064209, "scale": 0.001011182280147777, "original_dtype": "float32"}}, {"name": "batch_normalization_16/beta", "shape": [256], "dtype": "float32", "quantization": {"dtype": "uint8", "min": -0.10255144735177359, "scale": 0.000861776868502299, "original_dtype": "float32"}}, {"name": "batch_normalization_16/moving_mean", "shape": [256], "dtype": "float32", "quantization": {"dtype": "uint8", "min": -0.1815812204398361, "scale": 0.0014186032846862195, "original_dtype": "float32"}}, {"name": "batch_normalization_16/moving_variance", "shape": [256], "dtype": "float32", "quantization": {"dtype": "uint8", "min": 0.0008919105748645961, "scale": 0.0001652924684058948, "original_dtype": "float32"}}, {"name": "batch_normalization_17/gamma", "shape": [256], "dtype": "float32", "quantization": {"dtype": "uint8", "min": 0.8930070996284485, "scale": 0.0008597147231008492, "original_dtype": "float32"}}, {"name": "batch_normalization_17/beta", "shape": [256], "dtype": "float32", "quantization": {"dtype": "uint8", "min": -0.13273122941746432, "scale": 0.000790066841770621, "original_dtype": "float32"}}, {"name": "batch_normalization_17/moving_mean", "shape": [256], "dtype": "float32", "quantization": {"dtype": "uint8", "min": -1.6443209157270544, "scale": 0.012180154931311514, "original_dtype": "float32"}}, {"name": "batch_normalization_17/moving_variance", "shape": [256], "dtype": "float32", "quantization": {"dtype": "uint8", "min": 0.5147286653518677, "scale": 0.0065208205989762845, "original_dtype": "float32"}}, {"name": "batch_normalization_18/gamma", "shape": [512], "dtype": "float32", "quantization": {"dtype": "uint8", "min": 0.8828704953193665, "scale": 0.001233203972087187, "original_dtype": "float32"}}, {"name": "batch_normalization_18/beta", "shape": [512], "dtype": "float32", "quantization": {"dtype": "uint8", "min": -0.1849022626876831, "scale": 0.0014911472797393798, "original_dtype": "float32"}}, {"name": "batch_normalization_18/moving_mean", "shape": [512], "dtype": "float32", "quantization": {"dtype": "uint8", "min": -2.0279203377518, "scale": 0.018106431587069642, "original_dtype": "float32"}}, {"name": "batch_normalization_18/moving_variance", "shape": [512], "dtype": "float32", "quantization": {"dtype": "uint8", "min": 0.22968244552612305, "scale": 0.0070794460820216756, "original_dtype": "float32"}}, {"name": "batch_normalization_19/gamma", "shape": [512], "dtype": "float32", "quantization": {"dtype": "uint8", "min": 0.8985792994499207, "scale": 0.000948636438332352, "original_dtype": "float32"}}, {"name": "batch_normalization_19/beta", "shape": [512], "dtype": "float32", "quantization": {"dtype": "uint8", "min": -0.19049792500103221, "scale": 0.0011339162202442393, "original_dtype": "float32"}}, {"name": "batch_normalization_19/moving_mean", "shape": [512], "dtype": "float32", "quantization": {"dtype": "uint8", "min": -0.15238853295644125, "scale": 0.001120503918797362, "original_dtype": "float32"}}, {"name": "batch_normalization_19/moving_variance", "shape": [512], "dtype": "float32", "quantization": {"dtype": "uint8", "min": 0.0007517342455685139, "scale": 0.0001214311092945875, "original_dtype": "float32"}}, {"name": "batch_normalization_2/gamma", "shape": [32], "dtype": "float32", "quantization": {"dtype": "uint8", "min": 0.9075239896774292, "scale": 0.0008511833116119983, "original_dtype": "float32"}}, {"name": "batch_normalization_2/beta", "shape": [32], "dtype": "float32", "quantization": {"dtype": "uint8", "min": -0.07233847245281819, "scale": 0.0011667495556906158, "original_dtype": "float32"}}, {"name": "batch_normalization_2/moving_mean", "shape": [32], "dtype": "float32", "quantization": {"dtype": "uint8", "min": -0.6973860151627485, "scale": 0.00501716557671042, "original_dtype": "float32"}}, {"name": "batch_normalization_2/moving_variance", "shape": [32], "dtype": "float32", "quantization": {"dtype": "uint8", "min": 0.15674017369747162, "scale": 0.003898479950194265, "original_dtype": "float32"}}, {"name": "batch_normalization_20/gamma", "shape": [512], "dtype": "float32", "quantization": {"dtype": "uint8", "min": 0.862261950969696, "scale": 0.0009571549939174278, "original_dtype": "float32"}}, {"name": "batch_normalization_20/beta", "shape": [512], "dtype": "float32", "quantization": {"dtype": "uint8", "min": -0.32799300809993465, "scale": 0.001333304910975344, "original_dtype": "float32"}}, {"name": "batch_normalization_20/moving_mean", "shape": [512], "dtype": "float32", "quantization": {"dtype": "uint8", "min": -1.9134425471810732, "scale": 0.020574651044957776, "original_dtype": "float32"}}, {"name": "batch_normalization_20/moving_variance", "shape": [512], "dtype": "float32", "quantization": {"dtype": "uint8", "min": 0.4879002869129181, "scale": 0.010536953865313062, "original_dtype": "float32"}}, {"name": "batch_normalization_21/gamma", "shape": [1024], "dtype": "float32", "quantization": {"dtype": "uint8", "min": 0.7194499373435974, "scale": 0.0010455692515653721, "original_dtype": "float32"}}, {"name": "batch_normalization_21/beta", "shape": [1024], "dtype": "float32", "quantization": {"dtype": "uint8", "min": -0.5807488455491907, "scale": 0.0024197868564549614, "original_dtype": "float32"}}, {"name": "batch_normalization_21/moving_mean", "shape": [1024], "dtype": "float32", "quantization": {"dtype": "uint8", "min": -3.2015606211680994, "scale": 0.017885813526078768, "original_dtype": "float32"}}, {"name": "batch_normalization_21/moving_variance", "shape": [1024], "dtype": "float32", "quantization": {"dtype": "uint8", "min": 0.5199308395385742, "scale": 0.07742762472115311, "original_dtype": "float32"}}, {"name": "batch_normalization_3/gamma", "shape": [64], "dtype": "float32", "quantization": {"dtype": "uint8", "min": 0.8049679398536682, "scale": 0.001245090306973925, "original_dtype": "float32"}}, {"name": "batch_normalization_3/beta", "shape": [64], "dtype": "float32", "quantization": {"dtype": "uint8", "min": -0.09514156486473832, "scale": 0.001340022040348427, "original_dtype": "float32"}}, {"name": "batch_normalization_3/moving_mean", "shape": [64], "dtype": "float32", "quantization": {"dtype": "uint8", "min": -0.9547533666386324, "scale": 0.006494920861487295, "original_dtype": "float32"}}, {"name": "batch_normalization_3/moving_variance", "shape": [64], "dtype": "float32", "quantization": {"dtype": "uint8", "min": 0.11602143198251724, "scale": 0.0022763355982069874, "original_dtype": "float32"}}, {"name": "batch_normalization_4/gamma", "shape": [64], "dtype": "float32", "quantization": {"dtype": "uint8", "min": 0.8665672540664673, "scale": 0.0009945373909146177, "original_dtype": "float32"}}, {"name": "batch_normalization_4/beta", "shape": [64], "dtype": "float32", "quantization": {"dtype": "uint8", "min": -0.15689800101168017, "scale": 0.001341008555655386, "original_dtype": "float32"}}, {"name": "batch_normalization_4/moving_mean", "shape": [64], "dtype": "float32", "quantization": {"dtype": "uint8", "min": -0.23295288717045504, "scale": 0.0017647945997761746, "original_dtype": "float32"}}, {"name": "batch_normalization_4/moving_variance", "shape": [64], "dtype": "float32", "quantization": {"dtype": "uint8", "min": 0.0038869462441653013, "scale": 0.0003388032874128982, "original_dtype": "float32"}}, {"name": "batch_normalization_5/gamma", "shape": [64], "dtype": "float32", "quantization": {"dtype": "uint8", "min": 0.8956666588783264, "scale": 0.0008007453937156528, "original_dtype": "float32"}}, {"name": "batch_normalization_5/beta", "shape": [64], "dtype": "float32", "quantization": {"dtype": "uint8", "min": -0.08552218745736515, "scale": 0.0009718430392882403, "original_dtype": "float32"}}, {"name": "batch_normalization_5/moving_mean", "shape": [64], "dtype": "float32", "quantization": {"dtype": "uint8", "min": -0.8875681821037742, "scale": 0.007044191921458525, "original_dtype": "float32"}}, {"name": "batch_normalization_5/moving_variance", "shape": [64], "dtype": "float32", "quantization": {"dtype": "uint8", "min": 0.2902527451515198, "scale": 0.004181738227021461, "original_dtype": "float32"}}, {"name": "batch_normalization_6/gamma", "shape": [128], "dtype": "float32", "quantization": {"dtype": "uint8", "min": 0.8555991053581238, "scale": 0.0009618036887224983, "original_dtype": "float32"}}, {"name": "batch_normalization_6/beta", "shape": [128], "dtype": "float32", "quantization": {"dtype": "uint8", "min": -0.1314079559316822, "scale": 0.0016633918472364836, "original_dtype": "float32"}}, {"name": "batch_normalization_6/moving_mean", "shape": [128], "dtype": "float32", "quantization": {"dtype": "uint8", "min": -0.9594602958828795, "scale": 0.006853287827734853, "original_dtype": "float32"}}, {"name": "batch_normalization_6/moving_variance", "shape": [128], "dtype": "float32", "quantization": {"dtype": "uint8", "min": 0.1818692535161972, "scale": 0.005610991985190148, "original_dtype": "float32"}}, {"name": "batch_normalization_7/gamma", "shape": [128], "dtype": "float32", "quantization": {"dtype": "uint8", "min": 0.8718380331993103, "scale": 0.0009909828503926596, "original_dtype": "float32"}}, {"name": "batch_normalization_7/beta", "shape": [128], "dtype": "float32", "quantization": {"dtype": "uint8", "min": -0.15812141971260893, "scale": 0.0011375641705943088, "original_dtype": "float32"}}, {"name": "batch_normalization_7/moving_mean", "shape": [128], "dtype": "float32", "quantization": {"dtype": "uint8", "min": -0.16419264668343114, "scale": 0.001453032271534789, "original_dtype": "float32"}}, {"name": "batch_normalization_7/moving_variance", "shape": [128], "dtype": "float32", "quantization": {"dtype": "uint8", "min": 0.0010750072542577982, "scale": 0.00023130254326936077, "original_dtype": "float32"}}, {"name": "batch_normalization_8/gamma", "shape": [128], "dtype": "float32", "quantization": {"dtype": "uint8", "min": 0.9192572832107544, "scale": 0.000793612237070121, "original_dtype": "float32"}}, {"name": "batch_normalization_8/beta", "shape": [128], "dtype": "float32", "quantization": {"dtype": "uint8", "min": -0.11838542710916668, "scale": 0.0008516937202098322, "original_dtype": "float32"}}, {"name": "batch_normalization_8/moving_mean", "shape": [128], "dtype": "float32", "quantization": {"dtype": "uint8", "min": -0.9023126195458805, "scale": 0.007161211266237147, "original_dtype": "float32"}}, {"name": "batch_normalization_8/moving_variance", "shape": [128], "dtype": "float32", "quantization": {"dtype": "uint8", "min": 0.39027139544487, "scale": 0.002346922018948723, "original_dtype": "float32"}}, {"name": "batch_normalization_9/gamma", "shape": [128], "dtype": "float32", "quantization": {"dtype": "uint8", "min": 0.8008539080619812, "scale": 0.0012547920731937185, "original_dtype": "float32"}}, {"name": "batch_normalization_9/beta", "shape": [128], "dtype": "float32", "quantization": {"dtype": "uint8", "min": -0.10203244519584319, "scale": 0.0011464319684926201, "original_dtype": "float32"}}, {"name": "batch_normalization_9/moving_mean", "shape": [128], "dtype": "float32", "quantization": {"dtype": "uint8", "min": -1.479229459108091, "scale": 0.009796221583497291, "original_dtype": "float32"}}, {"name": "batch_normalization_9/moving_variance", "shape": [128], "dtype": "float32", "quantization": {"dtype": "uint8", "min": 0.3386923670768738, "scale": 0.0073804829634872135, "original_dtype": "float32"}}, {"name": "conv2d/kernel", "shape": [3, 3, 1, 32], "dtype": "float32", "quantization": {"dtype": "uint8", "min": -0.2221566514641631, "scale": 0.0015321148376838834, "original_dtype": "float32"}}, {"name": "conv2d_1/kernel", "shape": [1, 1, 32, 32], "dtype": "float32", "quantization": {"dtype": "uint8", "min": -0.42333432085373823, "scale": 0.003413986458497889, "original_dtype": "float32"}}, {"name": "conv2d_10/kernel", "shape": [1, 1, 256, 256], "dtype": "float32", "quantization": {"dtype": "uint8", "min": -0.2860528218979929, "scale": 0.002200406322292253, "original_dtype": "float32"}}, {"name": "conv2d_11/kernel", "shape": [1, 1, 256, 256], "dtype": "float32", "quantization": {"dtype": "uint8", "min": -0.2831313468661963, "scale": 0.002128807119294709, "original_dtype": "float32"}}, {"name": "conv2d_12/kernel", "shape": [1, 1, 256, 512], "dtype": "float32", "quantization": {"dtype": "uint8", "min": -0.25069956183433534, "scale": 0.0019434074560801188, "original_dtype": "float32"}}, {"name": "conv2d_13/kernel", "shape": [1, 1, 512, 512], "dtype": "float32", "quantization": {"dtype": "uint8", "min": -0.25456632469214646, "scale": 0.001958202497631896, "original_dtype": "float32"}}, {"name": "conv2d_14/kernel", "shape": [1, 1, 512, 1024], "dtype": "float32", "quantization": {"dtype": "uint8", "min": -0.2959425442359027, "scale": 0.002144511190115237, "original_dtype": "float32"}}, {"name": "conv2d_2/kernel", "shape": [1, 1, 32, 64], "dtype": "float32", "quantization": {"dtype": "uint8", "min": -0.388486385345459, "scale": 0.0028565175393048454, "original_dtype": "float32"}}, {"name": "conv2d_3/kernel", "shape": [1, 1, 64, 64], "dtype": "float32", "quantization": {"dtype": "uint8", "min": -0.36906272523543415, "scale": 0.002636162323110244, "original_dtype": "float32"}}, {"name": "conv2d_4/kernel", "shape": [1, 1, 64, 128], "dtype": "float32", "quantization": {"dtype": "uint8", "min": -0.3059000337825102, "scale": 0.00231742449835235, "original_dtype": "float32"}}, {"name": "conv2d_5/kernel", "shape": [1, 1, 128, 128], "dtype": "float32", "quantization": {"dtype": "uint8", "min": -0.3167109966278076, "scale": 0.002328757328145644, "original_dtype": "float32"}}, {"name": "conv2d_6/kernel", "shape": [1, 1, 128, 128], "dtype": "float32", "quantization": {"dtype": "uint8", "min": -0.3360256821501489, "scale": 0.002400183443929635, "original_dtype": "float32"}}, {"name": "conv2d_7/kernel", "shape": [1, 1, 128, 128], "dtype": "float32", "quantization": {"dtype": "uint8", "min": -0.2826858476096508, "scale": 0.0022258728158240223, "original_dtype": "float32"}}, {"name": "conv2d_8/kernel", "shape": [1, 1, 128, 256], "dtype": "float32", "quantization": {"dtype": "uint8", "min": -0.26113242658914304, "scale": 0.0019933773022071987, "original_dtype": "float32"}}, {"name": "conv2d_9/kernel", "shape": [1, 1, 256, 256], "dtype": "float32", "quantization": {"dtype": "uint8", "min": -0.27220653786378746, "scale": 0.0020938964451060575, "original_dtype": "float32"}}, {"name": "dense/kernel", "shape": [65536, 1], "dtype": "float32", "quantization": {"dtype": "uint8", "min": -0.2788586934407552, "scale": 0.0021785835425059, "original_dtype": "float32"}}, {"name": "dense/bias", "shape": [1], "dtype": "float32", "quantization": {"dtype": "uint8", "min": 0.036377083510160446, "scale": 1.0, "original_dtype": "float32"}}, {"name": "depthwise_conv2d/depthwise_kernel", "shape": [3, 3, 32, 1], "dtype": "float32", "quantization": {"dtype": "uint8", "min": -0.27618510027726495, "scale": 0.0019313643376032512, "original_dtype": "float32"}}, {"name": "depthwise_conv2d/bias", "shape": [32], "dtype": "float32", "quantization": {"dtype": "uint8", "min": -0.062146706397042555, "scale": 0.0005701532696976381, "original_dtype": "float32"}}, {"name": "depthwise_conv2d_1/depthwise_kernel", "shape": [3, 3, 64, 1], "dtype": "float32", "quantization": {"dtype": "uint8", "min": -0.19229700460153468, "scale": 0.0015261667031867831, "original_dtype": "float32"}}, {"name": "depthwise_conv2d_1/bias", "shape": [64], "dtype": "float32", "quantization": {"dtype": "uint8", "min": -0.08224044889211655, "scale": 0.0005375192738046833, "original_dtype": "float32"}}, {"name": "depthwise_conv2d_2/depthwise_kernel", "shape": [3, 3, 128, 1], "dtype": "float32", "quantization": {"dtype": "uint8", "min": -0.1743617246548335, "scale": 0.0014652245769313738, "original_dtype": "float32"}}, {"name": "depthwise_conv2d_2/bias", "shape": [128], "dtype": "float32", "quantization": {"dtype": "uint8", "min": -0.08746356517076492, "scale": 0.0007110858956972758, "original_dtype": "float32"}}, {"name": "depthwise_conv2d_3/depthwise_kernel", "shape": [3, 3, 128, 1], "dtype": "float32", "quantization": {"dtype": "uint8", "min": -0.2024411422364852, "scale": 0.0014564110952265123, "original_dtype": "float32"}}, {"name": "depthwise_conv2d_3/bias", "shape": [128], "dtype": "float32", "quantization": {"dtype": "uint8", "min": -0.07673602822948905, "scale": 0.000783020696219276, "original_dtype": "float32"}}, {"name": "depthwise_conv2d_4/depthwise_kernel", "shape": [3, 3, 256, 1], "dtype": "float32", "quantization": {"dtype": "uint8", "min": -0.16412535017611934, "scale": 0.0012625026936624564, "original_dtype": "float32"}}, {"name": "depthwise_conv2d_4/bias", "shape": [256], "dtype": "float32", "quantization": {"dtype": "uint8", "min": -0.08945655705882054, "scale": 0.0006389754075630038, "original_dtype": "float32"}}, {"name": "depthwise_conv2d_5/depthwise_kernel", "shape": [3, 3, 256, 1], "dtype": "float32", "quantization": {"dtype": "uint8", "min": -0.17559047902331634, "scale": 0.0012632408562828514, "original_dtype": "float32"}}, {"name": "depthwise_conv2d_5/bias", "shape": [256], "dtype": "float32", "quantization": {"dtype": "uint8", "min": -0.06260400017102559, "scale": 0.0005260840350506353, "original_dtype": "float32"}}, {"name": "depthwise_conv2d_6/depthwise_kernel", "shape": [3, 3, 512, 1], "dtype": "float32", "quantization": {"dtype": "uint8", "min": -0.1392748005249921, "scale": 0.0011606233377082676, "original_dtype": "float32"}}, {"name": "depthwise_conv2d_6/bias", "shape": [512], "dtype": "float32", "quantization": {"dtype": "uint8", "min": -0.08358401051338982, "scale": 0.000584503570023705, "original_dtype": "float32"}}]}]}