{"format": "layers-model", "generatedBy": "keras v2.4.0", "convertedBy": "TensorFlow.js Converter v2.8.2", "modelTopology": {"keras_version": "2.4.0", "backend": "tensorflow", "model_config": {"class_name": "Functional", "config": {"name": "model", "layers": [{"class_name": "InputLayer", "config": {"batch_input_shape": [null, 32, 2048, 1], "dtype": "float32", "sparse": false, "ragged": false, "name": "input_1"}, "name": "input_1", "inbound_nodes": []}, {"class_name": "Conv2D", "config": {"name": "conv2d", "trainable": true, "dtype": "float32", "filters": 32, "kernel_size": [3, 3], "strides": [2, 2], "padding": "same", "data_format": "channels_last", "dilation_rate": [1, 1], "groups": 1, "activation": "linear", "use_bias": false, "kernel_initializer": {"class_name": "GlorotUniform", "config": {"seed": null}}, "bias_initializer": {"class_name": "Zeros", "config": {}}, "kernel_regularizer": null, "bias_regularizer": null, "activity_regularizer": null, "kernel_constraint": null, "bias_constraint": null}, "name": "conv2d", "inbound_nodes": [[["input_1", 0, 0, {}]]]}, {"class_name": "BatchNormalization", "config": {"name": "batch_normalization", "trainable": true, "dtype": "float32", "axis": [3], "momentum": 0.99, "epsilon": 0.001, "center": true, "scale": true, "beta_initializer": {"class_name": "Zeros", "config": {}}, "gamma_initializer": {"class_name": "Ones", "config": {}}, "moving_mean_initializer": {"class_name": "Zeros", "config": {}}, "moving_variance_initializer": {"class_name": "Ones", "config": {}}, "beta_regularizer": null, "gamma_regularizer": null, "beta_constraint": null, "gamma_constraint": null}, "name": "batch_normalization", "inbound_nodes": [[["conv2d", 0, 0, {}]]]}, {"class_name": "Activation", "config": {"name": "activation", "trainable": true, "dtype": "float32", "activation": "relu6"}, "name": "activation", "inbound_nodes": [[["batch_normalization", 0, 0, {}]]]}, {"class_name": "Conv2D", "config": {"name": "conv2d_1", "trainable": true, "dtype": "float32", "filters": 32, "kernel_size": [1, 1], "strides": [1, 1], "padding": "same", "data_format": "channels_last", "dilation_rate": [1, 1], "groups": 1, "activation": "linear", "use_bias": false, "kernel_initializer": {"class_name": "GlorotUniform", "config": {"seed": null}}, "bias_initializer": {"class_name": "Zeros", "config": {}}, "kernel_regularizer": null, "bias_regularizer": null, "activity_regularizer": null, "kernel_constraint": null, "bias_constraint": null}, "name": "conv2d_1", "inbound_nodes": [[["activation", 0, 0, {}]]]}, {"class_name": "BatchNormalization", "config": {"name": "batch_normalization_1", "trainable": true, "dtype": "float32", "axis": [3], "momentum": 0.99, "epsilon": 0.001, "center": true, "scale": true, "beta_initializer": {"class_name": "Zeros", "config": {}}, "gamma_initializer": {"class_name": "Ones", "config": {}}, "moving_mean_initializer": {"class_name": "Zeros", "config": {}}, "moving_variance_initializer": {"class_name": "Ones", "config": {}}, "beta_regularizer": null, "gamma_regularizer": null, "beta_constraint": null, "gamma_constraint": null}, "name": "batch_normalization_1", "inbound_nodes": [[["conv2d_1", 0, 0, {}]]]}, {"class_name": "Activation", "config": {"name": "activation_1", "trainable": true, "dtype": "float32", "activation": "relu6"}, "name": "activation_1", "inbound_nodes": [[["batch_normalization_1", 0, 0, {}]]]}, {"class_name": "DepthwiseConv2D", "config": {"name": "depthwise_conv2d", "trainable": true, "dtype": "float32", "kernel_size": [3, 3], "strides": [1, 1], "padding": "same", "data_format": "channels_last", "dilation_rate": [1, 1], "groups": 1, "activation": "linear", "use_bias": true, "bias_initializer": {"class_name": "Zeros", "config": {}}, "bias_regularizer": null, "activity_regularizer": null, "bias_constraint": null, "depth_multiplier": 1, "depthwise_initializer": {"class_name": "GlorotUniform", "config": {"seed": null}}, "depthwise_regularizer": null, "depthwise_constraint": null}, "name": "depthwise_conv2d", "inbound_nodes": [[["activation_1", 0, 0, {}]]]}, {"class_name": "BatchNormalization", "config": {"name": "batch_normalization_2", "trainable": true, "dtype": "float32", "axis": [3], "momentum": 0.99, "epsilon": 0.001, "center": true, "scale": true, "beta_initializer": {"class_name": "Zeros", "config": {}}, "gamma_initializer": {"class_name": "Ones", "config": {}}, "moving_mean_initializer": {"class_name": "Zeros", "config": {}}, "moving_variance_initializer": {"class_name": "Ones", "config": {}}, "beta_regularizer": null, "gamma_regularizer": null, "beta_constraint": null, "gamma_constraint": null}, "name": "batch_normalization_2", "inbound_nodes": [[["depthwise_conv2d", 0, 0, {}]]]}, {"class_name": "Activation", "config": {"name": "activation_2", "trainable": true, "dtype": "float32", "activation": "relu6"}, "name": "activation_2", "inbound_nodes": [[["batch_normalization_2", 0, 0, {}]]]}, {"class_name": "Conv2D", "config": {"name": "conv2d_2", "trainable": true, "dtype": "float32", "filters": 16, "kernel_size": [1, 1], "strides": [1, 1], "padding": "same", "data_format": "channels_last", "dilation_rate": [1, 1], "groups": 1, "activation": "linear", "use_bias": true, "kernel_initializer": {"class_name": "GlorotUniform", "config": {"seed": null}}, "bias_initializer": {"class_name": "Zeros", "config": {}}, "kernel_regularizer": null, "bias_regularizer": null, "activity_regularizer": null, "kernel_constraint": null, "bias_constraint": null}, "name": "conv2d_2", "inbound_nodes": [[["activation_2", 0, 0, {}]]]}, {"class_name": "BatchNormalization", "config": {"name": "batch_normalization_3", "trainable": true, "dtype": "float32", "axis": [3], "momentum": 0.99, "epsilon": 0.001, "center": true, "scale": true, "beta_initializer": {"class_name": "Zeros", "config": {}}, "gamma_initializer": {"class_name": "Ones", "config": {}}, "moving_mean_initializer": {"class_name": "Zeros", "config": {}}, "moving_variance_initializer": {"class_name": "Ones", "config": {}}, "beta_regularizer": null, "gamma_regularizer": null, "beta_constraint": null, "gamma_constraint": null}, "name": "batch_normalization_3", "inbound_nodes": [[["conv2d_2", 0, 0, {}]]]}, {"class_name": "Conv2D", "config": {"name": "conv2d_3", "trainable": true, "dtype": "float32", "filters": 96, "kernel_size": [1, 1], "strides": [1, 1], "padding": "same", "data_format": "channels_last", "dilation_rate": [1, 1], "groups": 1, "activation": "linear", "use_bias": false, "kernel_initializer": {"class_name": "GlorotUniform", "config": {"seed": null}}, "bias_initializer": {"class_name": "Zeros", "config": {}}, "kernel_regularizer": null, "bias_regularizer": null, "activity_regularizer": null, "kernel_constraint": null, "bias_constraint": null}, "name": "conv2d_3", "inbound_nodes": [[["batch_normalization_3", 0, 0, {}]]]}, {"class_name": "BatchNormalization", "config": {"name": "batch_normalization_4", "trainable": true, "dtype": "float32", "axis": [3], "momentum": 0.99, "epsilon": 0.001, "center": true, "scale": true, "beta_initializer": {"class_name": "Zeros", "config": {}}, "gamma_initializer": {"class_name": "Ones", "config": {}}, "moving_mean_initializer": {"class_name": "Zeros", "config": {}}, "moving_variance_initializer": {"class_name": "Ones", "config": {}}, "beta_regularizer": null, "gamma_regularizer": null, "beta_constraint": null, "gamma_constraint": null}, "name": "batch_normalization_4", "inbound_nodes": [[["conv2d_3", 0, 0, {}]]]}, {"class_name": "Activation", "config": {"name": "activation_3", "trainable": true, "dtype": "float32", "activation": "relu6"}, "name": "activation_3", "inbound_nodes": [[["batch_normalization_4", 0, 0, {}]]]}, {"class_name": "DepthwiseConv2D", "config": {"name": "depthwise_conv2d_1", "trainable": true, "dtype": "float32", "kernel_size": [3, 3], "strides": [2, 2], "padding": "same", "data_format": "channels_last", "dilation_rate": [1, 1], "groups": 1, "activation": "linear", "use_bias": true, "bias_initializer": {"class_name": "Zeros", "config": {}}, "bias_regularizer": null, "activity_regularizer": null, "bias_constraint": null, "depth_multiplier": 1, "depthwise_initializer": {"class_name": "GlorotUniform", "config": {"seed": null}}, "depthwise_regularizer": null, "depthwise_constraint": null}, "name": "depthwise_conv2d_1", "inbound_nodes": [[["activation_3", 0, 0, {}]]]}, {"class_name": "BatchNormalization", "config": {"name": "batch_normalization_5", "trainable": true, "dtype": "float32", "axis": [3], "momentum": 0.99, "epsilon": 0.001, "center": true, "scale": true, "beta_initializer": {"class_name": "Zeros", "config": {}}, "gamma_initializer": {"class_name": "Ones", "config": {}}, "moving_mean_initializer": {"class_name": "Zeros", "config": {}}, "moving_variance_initializer": {"class_name": "Ones", "config": {}}, "beta_regularizer": null, "gamma_regularizer": null, "beta_constraint": null, "gamma_constraint": null}, "name": "batch_normalization_5", "inbound_nodes": [[["depthwise_conv2d_1", 0, 0, {}]]]}, {"class_name": "Activation", "config": {"name": "activation_4", "trainable": true, "dtype": "float32", "activation": "relu6"}, "name": "activation_4", "inbound_nodes": [[["batch_normalization_5", 0, 0, {}]]]}, {"class_name": "Conv2D", "config": {"name": "conv2d_4", "trainable": true, "dtype": "float32", "filters": 24, "kernel_size": [1, 1], "strides": [1, 1], "padding": "same", "data_format": "channels_last", "dilation_rate": [1, 1], "groups": 1, "activation": "linear", "use_bias": true, "kernel_initializer": {"class_name": "GlorotUniform", "config": {"seed": null}}, "bias_initializer": {"class_name": "Zeros", "config": {}}, "kernel_regularizer": null, "bias_regularizer": null, "activity_regularizer": null, "kernel_constraint": null, "bias_constraint": null}, "name": "conv2d_4", "inbound_nodes": [[["activation_4", 0, 0, {}]]]}, {"class_name": "BatchNormalization", "config": {"name": "batch_normalization_6", "trainable": true, "dtype": "float32", "axis": [3], "momentum": 0.99, "epsilon": 0.001, "center": true, "scale": true, "beta_initializer": {"class_name": "Zeros", "config": {}}, "gamma_initializer": {"class_name": "Ones", "config": {}}, "moving_mean_initializer": {"class_name": "Zeros", "config": {}}, "moving_variance_initializer": {"class_name": "Ones", "config": {}}, "beta_regularizer": null, "gamma_regularizer": null, "beta_constraint": null, "gamma_constraint": null}, "name": "batch_normalization_6", "inbound_nodes": [[["conv2d_4", 0, 0, {}]]]}, {"class_name": "Conv2D", "config": {"name": "conv2d_5", "trainable": true, "dtype": "float32", "filters": 144, "kernel_size": [1, 1], "strides": [1, 1], "padding": "same", "data_format": "channels_last", "dilation_rate": [1, 1], "groups": 1, "activation": "linear", "use_bias": false, "kernel_initializer": {"class_name": "GlorotUniform", "config": {"seed": null}}, "bias_initializer": {"class_name": "Zeros", "config": {}}, "kernel_regularizer": null, "bias_regularizer": null, "activity_regularizer": null, "kernel_constraint": null, "bias_constraint": null}, "name": "conv2d_5", "inbound_nodes": [[["batch_normalization_6", 0, 0, {}]]]}, {"class_name": "BatchNormalization", "config": {"name": "batch_normalization_7", "trainable": true, "dtype": "float32", "axis": [3], "momentum": 0.99, "epsilon": 0.001, "center": true, "scale": true, "beta_initializer": {"class_name": "Zeros", "config": {}}, "gamma_initializer": {"class_name": "Ones", "config": {}}, "moving_mean_initializer": {"class_name": "Zeros", "config": {}}, "moving_variance_initializer": {"class_name": "Ones", "config": {}}, "beta_regularizer": null, "gamma_regularizer": null, "beta_constraint": null, "gamma_constraint": null}, "name": "batch_normalization_7", "inbound_nodes": [[["conv2d_5", 0, 0, {}]]]}, {"class_name": "Activation", "config": {"name": "activation_5", "trainable": true, "dtype": "float32", "activation": "relu6"}, "name": "activation_5", "inbound_nodes": [[["batch_normalization_7", 0, 0, {}]]]}, {"class_name": "DepthwiseConv2D", "config": {"name": "depthwise_conv2d_2", "trainable": true, "dtype": "float32", "kernel_size": [3, 3], "strides": [1, 1], "padding": "same", "data_format": "channels_last", "dilation_rate": [1, 1], "groups": 1, "activation": "linear", "use_bias": true, "bias_initializer": {"class_name": "Zeros", "config": {}}, "bias_regularizer": null, "activity_regularizer": null, "bias_constraint": null, "depth_multiplier": 1, "depthwise_initializer": {"class_name": "GlorotUniform", "config": {"seed": null}}, "depthwise_regularizer": null, "depthwise_constraint": null}, "name": "depthwise_conv2d_2", "inbound_nodes": [[["activation_5", 0, 0, {}]]]}, {"class_name": "BatchNormalization", "config": {"name": "batch_normalization_8", "trainable": true, "dtype": "float32", "axis": [3], "momentum": 0.99, "epsilon": 0.001, "center": true, "scale": true, "beta_initializer": {"class_name": "Zeros", "config": {}}, "gamma_initializer": {"class_name": "Ones", "config": {}}, "moving_mean_initializer": {"class_name": "Zeros", "config": {}}, "moving_variance_initializer": {"class_name": "Ones", "config": {}}, "beta_regularizer": null, "gamma_regularizer": null, "beta_constraint": null, "gamma_constraint": null}, "name": "batch_normalization_8", "inbound_nodes": [[["depthwise_conv2d_2", 0, 0, {}]]]}, {"class_name": "Activation", "config": {"name": "activation_6", "trainable": true, "dtype": "float32", "activation": "relu6"}, "name": "activation_6", "inbound_nodes": [[["batch_normalization_8", 0, 0, {}]]]}, {"class_name": "Conv2D", "config": {"name": "conv2d_6", "trainable": true, "dtype": "float32", "filters": 24, "kernel_size": [1, 1], "strides": [1, 1], "padding": "same", "data_format": "channels_last", "dilation_rate": [1, 1], "groups": 1, "activation": "linear", "use_bias": true, "kernel_initializer": {"class_name": "GlorotUniform", "config": {"seed": null}}, "bias_initializer": {"class_name": "Zeros", "config": {}}, "kernel_regularizer": null, "bias_regularizer": null, "activity_regularizer": null, "kernel_constraint": null, "bias_constraint": null}, "name": "conv2d_6", "inbound_nodes": [[["activation_6", 0, 0, {}]]]}, {"class_name": "BatchNormalization", "config": {"name": "batch_normalization_9", "trainable": true, "dtype": "float32", "axis": [3], "momentum": 0.99, "epsilon": 0.001, "center": true, "scale": true, "beta_initializer": {"class_name": "Zeros", "config": {}}, "gamma_initializer": {"class_name": "Ones", "config": {}}, "moving_mean_initializer": {"class_name": "Zeros", "config": {}}, "moving_variance_initializer": {"class_name": "Ones", "config": {}}, "beta_regularizer": null, "gamma_regularizer": null, "beta_constraint": null, "gamma_constraint": null}, "name": "batch_normalization_9", "inbound_nodes": [[["conv2d_6", 0, 0, {}]]]}, {"class_name": "Add", "config": {"name": "add", "trainable": true, "dtype": "float32"}, "name": "add", "inbound_nodes": [[["batch_normalization_9", 0, 0, {}], ["batch_normalization_6", 0, 0, {}]]]}, {"class_name": "Conv2D", "config": {"name": "conv2d_7", "trainable": true, "dtype": "float32", "filters": 144, "kernel_size": [1, 1], "strides": [1, 1], "padding": "same", "data_format": "channels_last", "dilation_rate": [1, 1], "groups": 1, "activation": "linear", "use_bias": false, "kernel_initializer": {"class_name": "GlorotUniform", "config": {"seed": null}}, "bias_initializer": {"class_name": "Zeros", "config": {}}, "kernel_regularizer": null, "bias_regularizer": null, "activity_regularizer": null, "kernel_constraint": null, "bias_constraint": null}, "name": "conv2d_7", "inbound_nodes": [[["add", 0, 0, {}]]]}, {"class_name": "BatchNormalization", "config": {"name": "batch_normalization_10", "trainable": true, "dtype": "float32", "axis": [3], "momentum": 0.99, "epsilon": 0.001, "center": true, "scale": true, "beta_initializer": {"class_name": "Zeros", "config": {}}, "gamma_initializer": {"class_name": "Ones", "config": {}}, "moving_mean_initializer": {"class_name": "Zeros", "config": {}}, "moving_variance_initializer": {"class_name": "Ones", "config": {}}, "beta_regularizer": null, "gamma_regularizer": null, "beta_constraint": null, "gamma_constraint": null}, "name": "batch_normalization_10", "inbound_nodes": [[["conv2d_7", 0, 0, {}]]]}, {"class_name": "Activation", "config": {"name": "activation_7", "trainable": true, "dtype": "float32", "activation": "relu6"}, "name": "activation_7", "inbound_nodes": [[["batch_normalization_10", 0, 0, {}]]]}, {"class_name": "DepthwiseConv2D", "config": {"name": "depthwise_conv2d_3", "trainable": true, "dtype": "float32", "kernel_size": [3, 3], "strides": [2, 2], "padding": "same", "data_format": "channels_last", "dilation_rate": [1, 1], "groups": 1, "activation": "linear", "use_bias": true, "bias_initializer": {"class_name": "Zeros", "config": {}}, "bias_regularizer": null, "activity_regularizer": null, "bias_constraint": null, "depth_multiplier": 1, "depthwise_initializer": {"class_name": "GlorotUniform", "config": {"seed": null}}, "depthwise_regularizer": null, "depthwise_constraint": null}, "name": "depthwise_conv2d_3", "inbound_nodes": [[["activation_7", 0, 0, {}]]]}, {"class_name": "BatchNormalization", "config": {"name": "batch_normalization_11", "trainable": true, "dtype": "float32", "axis": [3], "momentum": 0.99, "epsilon": 0.001, "center": true, "scale": true, "beta_initializer": {"class_name": "Zeros", "config": {}}, "gamma_initializer": {"class_name": "Ones", "config": {}}, "moving_mean_initializer": {"class_name": "Zeros", "config": {}}, "moving_variance_initializer": {"class_name": "Ones", "config": {}}, "beta_regularizer": null, "gamma_regularizer": null, "beta_constraint": null, "gamma_constraint": null}, "name": "batch_normalization_11", "inbound_nodes": [[["depthwise_conv2d_3", 0, 0, {}]]]}, {"class_name": "Activation", "config": {"name": "activation_8", "trainable": true, "dtype": "float32", "activation": "relu6"}, "name": "activation_8", "inbound_nodes": [[["batch_normalization_11", 0, 0, {}]]]}, {"class_name": "Conv2D", "config": {"name": "conv2d_8", "trainable": true, "dtype": "float32", "filters": 32, "kernel_size": [1, 1], "strides": [1, 1], "padding": "same", "data_format": "channels_last", "dilation_rate": [1, 1], "groups": 1, "activation": "linear", "use_bias": true, "kernel_initializer": {"class_name": "GlorotUniform", "config": {"seed": null}}, "bias_initializer": {"class_name": "Zeros", "config": {}}, "kernel_regularizer": null, "bias_regularizer": null, "activity_regularizer": null, "kernel_constraint": null, "bias_constraint": null}, "name": "conv2d_8", "inbound_nodes": [[["activation_8", 0, 0, {}]]]}, {"class_name": "BatchNormalization", "config": {"name": "batch_normalization_12", "trainable": true, "dtype": "float32", "axis": [3], "momentum": 0.99, "epsilon": 0.001, "center": true, "scale": true, "beta_initializer": {"class_name": "Zeros", "config": {}}, "gamma_initializer": {"class_name": "Ones", "config": {}}, "moving_mean_initializer": {"class_name": "Zeros", "config": {}}, "moving_variance_initializer": {"class_name": "Ones", "config": {}}, "beta_regularizer": null, "gamma_regularizer": null, "beta_constraint": null, "gamma_constraint": null}, "name": "batch_normalization_12", "inbound_nodes": [[["conv2d_8", 0, 0, {}]]]}, {"class_name": "Conv2D", "config": {"name": "conv2d_9", "trainable": true, "dtype": "float32", "filters": 192, "kernel_size": [1, 1], "strides": [1, 1], "padding": "same", "data_format": "channels_last", "dilation_rate": [1, 1], "groups": 1, "activation": "linear", "use_bias": false, "kernel_initializer": {"class_name": "GlorotUniform", "config": {"seed": null}}, "bias_initializer": {"class_name": "Zeros", "config": {}}, "kernel_regularizer": null, "bias_regularizer": null, "activity_regularizer": null, "kernel_constraint": null, "bias_constraint": null}, "name": "conv2d_9", "inbound_nodes": [[["batch_normalization_12", 0, 0, {}]]]}, {"class_name": "BatchNormalization", "config": {"name": "batch_normalization_13", "trainable": true, "dtype": "float32", "axis": [3], "momentum": 0.99, "epsilon": 0.001, "center": true, "scale": true, "beta_initializer": {"class_name": "Zeros", "config": {}}, "gamma_initializer": {"class_name": "Ones", "config": {}}, "moving_mean_initializer": {"class_name": "Zeros", "config": {}}, "moving_variance_initializer": {"class_name": "Ones", "config": {}}, "beta_regularizer": null, "gamma_regularizer": null, "beta_constraint": null, "gamma_constraint": null}, "name": "batch_normalization_13", "inbound_nodes": [[["conv2d_9", 0, 0, {}]]]}, {"class_name": "Activation", "config": {"name": "activation_9", "trainable": true, "dtype": "float32", "activation": "relu6"}, "name": "activation_9", "inbound_nodes": [[["batch_normalization_13", 0, 0, {}]]]}, {"class_name": "DepthwiseConv2D", "config": {"name": "depthwise_conv2d_4", "trainable": true, "dtype": "float32", "kernel_size": [3, 3], "strides": [1, 1], "padding": "same", "data_format": "channels_last", "dilation_rate": [1, 1], "groups": 1, "activation": "linear", "use_bias": true, "bias_initializer": {"class_name": "Zeros", "config": {}}, "bias_regularizer": null, "activity_regularizer": null, "bias_constraint": null, "depth_multiplier": 1, "depthwise_initializer": {"class_name": "GlorotUniform", "config": {"seed": null}}, "depthwise_regularizer": null, "depthwise_constraint": null}, "name": "depthwise_conv2d_4", "inbound_nodes": [[["activation_9", 0, 0, {}]]]}, {"class_name": "BatchNormalization", "config": {"name": "batch_normalization_14", "trainable": true, "dtype": "float32", "axis": [3], "momentum": 0.99, "epsilon": 0.001, "center": true, "scale": true, "beta_initializer": {"class_name": "Zeros", "config": {}}, "gamma_initializer": {"class_name": "Ones", "config": {}}, "moving_mean_initializer": {"class_name": "Zeros", "config": {}}, "moving_variance_initializer": {"class_name": "Ones", "config": {}}, "beta_regularizer": null, "gamma_regularizer": null, "beta_constraint": null, "gamma_constraint": null}, "name": "batch_normalization_14", "inbound_nodes": [[["depthwise_conv2d_4", 0, 0, {}]]]}, {"class_name": "Activation", "config": {"name": "activation_10", "trainable": true, "dtype": "float32", "activation": "relu6"}, "name": "activation_10", "inbound_nodes": [[["batch_normalization_14", 0, 0, {}]]]}, {"class_name": "Conv2D", "config": {"name": "conv2d_10", "trainable": true, "dtype": "float32", "filters": 32, "kernel_size": [1, 1], "strides": [1, 1], "padding": "same", "data_format": "channels_last", "dilation_rate": [1, 1], "groups": 1, "activation": "linear", "use_bias": true, "kernel_initializer": {"class_name": "GlorotUniform", "config": {"seed": null}}, "bias_initializer": {"class_name": "Zeros", "config": {}}, "kernel_regularizer": null, "bias_regularizer": null, "activity_regularizer": null, "kernel_constraint": null, "bias_constraint": null}, "name": "conv2d_10", "inbound_nodes": [[["activation_10", 0, 0, {}]]]}, {"class_name": "BatchNormalization", "config": {"name": "batch_normalization_15", "trainable": true, "dtype": "float32", "axis": [3], "momentum": 0.99, "epsilon": 0.001, "center": true, "scale": true, "beta_initializer": {"class_name": "Zeros", "config": {}}, "gamma_initializer": {"class_name": "Ones", "config": {}}, "moving_mean_initializer": {"class_name": "Zeros", "config": {}}, "moving_variance_initializer": {"class_name": "Ones", "config": {}}, "beta_regularizer": null, "gamma_regularizer": null, "beta_constraint": null, "gamma_constraint": null}, "name": "batch_normalization_15", "inbound_nodes": [[["conv2d_10", 0, 0, {}]]]}, {"class_name": "Add", "config": {"name": "add_1", "trainable": true, "dtype": "float32"}, "name": "add_1", "inbound_nodes": [[["batch_normalization_15", 0, 0, {}], ["batch_normalization_12", 0, 0, {}]]]}, {"class_name": "Conv2D", "config": {"name": "conv2d_11", "trainable": true, "dtype": "float32", "filters": 192, "kernel_size": [1, 1], "strides": [1, 1], "padding": "same", "data_format": "channels_last", "dilation_rate": [1, 1], "groups": 1, "activation": "linear", "use_bias": false, "kernel_initializer": {"class_name": "GlorotUniform", "config": {"seed": null}}, "bias_initializer": {"class_name": "Zeros", "config": {}}, "kernel_regularizer": null, "bias_regularizer": null, "activity_regularizer": null, "kernel_constraint": null, "bias_constraint": null}, "name": "conv2d_11", "inbound_nodes": [[["add_1", 0, 0, {}]]]}, {"class_name": "BatchNormalization", "config": {"name": "batch_normalization_16", "trainable": true, "dtype": "float32", "axis": [3], "momentum": 0.99, "epsilon": 0.001, "center": true, "scale": true, "beta_initializer": {"class_name": "Zeros", "config": {}}, "gamma_initializer": {"class_name": "Ones", "config": {}}, "moving_mean_initializer": {"class_name": "Zeros", "config": {}}, "moving_variance_initializer": {"class_name": "Ones", "config": {}}, "beta_regularizer": null, "gamma_regularizer": null, "beta_constraint": null, "gamma_constraint": null}, "name": "batch_normalization_16", "inbound_nodes": [[["conv2d_11", 0, 0, {}]]]}, {"class_name": "Activation", "config": {"name": "activation_11", "trainable": true, "dtype": "float32", "activation": "relu6"}, "name": "activation_11", "inbound_nodes": [[["batch_normalization_16", 0, 0, {}]]]}, {"class_name": "DepthwiseConv2D", "config": {"name": "depthwise_conv2d_5", "trainable": true, "dtype": "float32", "kernel_size": [3, 3], "strides": [1, 1], "padding": "same", "data_format": "channels_last", "dilation_rate": [1, 1], "groups": 1, "activation": "linear", "use_bias": true, "bias_initializer": {"class_name": "Zeros", "config": {}}, "bias_regularizer": null, "activity_regularizer": null, "bias_constraint": null, "depth_multiplier": 1, "depthwise_initializer": {"class_name": "GlorotUniform", "config": {"seed": null}}, "depthwise_regularizer": null, "depthwise_constraint": null}, "name": "depthwise_conv2d_5", "inbound_nodes": [[["activation_11", 0, 0, {}]]]}, {"class_name": "BatchNormalization", "config": {"name": "batch_normalization_17", "trainable": true, "dtype": "float32", "axis": [3], "momentum": 0.99, "epsilon": 0.001, "center": true, "scale": true, "beta_initializer": {"class_name": "Zeros", "config": {}}, "gamma_initializer": {"class_name": "Ones", "config": {}}, "moving_mean_initializer": {"class_name": "Zeros", "config": {}}, "moving_variance_initializer": {"class_name": "Ones", "config": {}}, "beta_regularizer": null, "gamma_regularizer": null, "beta_constraint": null, "gamma_constraint": null}, "name": "batch_normalization_17", "inbound_nodes": [[["depthwise_conv2d_5", 0, 0, {}]]]}, {"class_name": "Activation", "config": {"name": "activation_12", "trainable": true, "dtype": "float32", "activation": "relu6"}, "name": "activation_12", "inbound_nodes": [[["batch_normalization_17", 0, 0, {}]]]}, {"class_name": "Conv2D", "config": {"name": "conv2d_12", "trainable": true, "dtype": "float32", "filters": 32, "kernel_size": [1, 1], "strides": [1, 1], "padding": "same", "data_format": "channels_last", "dilation_rate": [1, 1], "groups": 1, "activation": "linear", "use_bias": true, "kernel_initializer": {"class_name": "GlorotUniform", "config": {"seed": null}}, "bias_initializer": {"class_name": "Zeros", "config": {}}, "kernel_regularizer": null, "bias_regularizer": null, "activity_regularizer": null, "kernel_constraint": null, "bias_constraint": null}, "name": "conv2d_12", "inbound_nodes": [[["activation_12", 0, 0, {}]]]}, {"class_name": "BatchNormalization", "config": {"name": "batch_normalization_18", "trainable": true, "dtype": "float32", "axis": [3], "momentum": 0.99, "epsilon": 0.001, "center": true, "scale": true, "beta_initializer": {"class_name": "Zeros", "config": {}}, "gamma_initializer": {"class_name": "Ones", "config": {}}, "moving_mean_initializer": {"class_name": "Zeros", "config": {}}, "moving_variance_initializer": {"class_name": "Ones", "config": {}}, "beta_regularizer": null, "gamma_regularizer": null, "beta_constraint": null, "gamma_constraint": null}, "name": "batch_normalization_18", "inbound_nodes": [[["conv2d_12", 0, 0, {}]]]}, {"class_name": "Add", "config": {"name": "add_2", "trainable": true, "dtype": "float32"}, "name": "add_2", "inbound_nodes": [[["batch_normalization_18", 0, 0, {}], ["add_1", 0, 0, {}]]]}, {"class_name": "Conv2D", "config": {"name": "conv2d_13", "trainable": true, "dtype": "float32", "filters": 192, "kernel_size": [1, 1], "strides": [1, 1], "padding": "same", "data_format": "channels_last", "dilation_rate": [1, 1], "groups": 1, "activation": "linear", "use_bias": false, "kernel_initializer": {"class_name": "GlorotUniform", "config": {"seed": null}}, "bias_initializer": {"class_name": "Zeros", "config": {}}, "kernel_regularizer": null, "bias_regularizer": null, "activity_regularizer": null, "kernel_constraint": null, "bias_constraint": null}, "name": "conv2d_13", "inbound_nodes": [[["add_2", 0, 0, {}]]]}, {"class_name": "BatchNormalization", "config": {"name": "batch_normalization_19", "trainable": true, "dtype": "float32", "axis": [3], "momentum": 0.99, "epsilon": 0.001, "center": true, "scale": true, "beta_initializer": {"class_name": "Zeros", "config": {}}, "gamma_initializer": {"class_name": "Ones", "config": {}}, "moving_mean_initializer": {"class_name": "Zeros", "config": {}}, "moving_variance_initializer": {"class_name": "Ones", "config": {}}, "beta_regularizer": null, "gamma_regularizer": null, "beta_constraint": null, "gamma_constraint": null}, "name": "batch_normalization_19", "inbound_nodes": [[["conv2d_13", 0, 0, {}]]]}, {"class_name": "Activation", "config": {"name": "activation_13", "trainable": true, "dtype": "float32", "activation": "relu6"}, "name": "activation_13", "inbound_nodes": [[["batch_normalization_19", 0, 0, {}]]]}, {"class_name": "DepthwiseConv2D", "config": {"name": "depthwise_conv2d_6", "trainable": true, "dtype": "float32", "kernel_size": [3, 3], "strides": [2, 2], "padding": "same", "data_format": "channels_last", "dilation_rate": [1, 1], "groups": 1, "activation": "linear", "use_bias": true, "bias_initializer": {"class_name": "Zeros", "config": {}}, "bias_regularizer": null, "activity_regularizer": null, "bias_constraint": null, "depth_multiplier": 1, "depthwise_initializer": {"class_name": "GlorotUniform", "config": {"seed": null}}, "depthwise_regularizer": null, "depthwise_constraint": null}, "name": "depthwise_conv2d_6", "inbound_nodes": [[["activation_13", 0, 0, {}]]]}, {"class_name": "BatchNormalization", "config": {"name": "batch_normalization_20", "trainable": true, "dtype": "float32", "axis": [3], "momentum": 0.99, "epsilon": 0.001, "center": true, "scale": true, "beta_initializer": {"class_name": "Zeros", "config": {}}, "gamma_initializer": {"class_name": "Ones", "config": {}}, "moving_mean_initializer": {"class_name": "Zeros", "config": {}}, "moving_variance_initializer": {"class_name": "Ones", "config": {}}, "beta_regularizer": null, "gamma_regularizer": null, "beta_constraint": null, "gamma_constraint": null}, "name": "batch_normalization_20", "inbound_nodes": [[["depthwise_conv2d_6", 0, 0, {}]]]}, {"class_name": "Activation", "config": {"name": "activation_14", "trainable": true, "dtype": "float32", "activation": "relu6"}, "name": "activation_14", "inbound_nodes": [[["batch_normalization_20", 0, 0, {}]]]}, {"class_name": "Conv2D", "config": {"name": "conv2d_14", "trainable": true, "dtype": "float32", "filters": 64, "kernel_size": [1, 1], "strides": [1, 1], "padding": "same", "data_format": "channels_last", "dilation_rate": [1, 1], "groups": 1, "activation": "linear", "use_bias": true, "kernel_initializer": {"class_name": "GlorotUniform", "config": {"seed": null}}, "bias_initializer": {"class_name": "Zeros", "config": {}}, "kernel_regularizer": null, "bias_regularizer": null, "activity_regularizer": null, "kernel_constraint": null, "bias_constraint": null}, "name": "conv2d_14", "inbound_nodes": [[["activation_14", 0, 0, {}]]]}, {"class_name": "BatchNormalization", "config": {"name": "batch_normalization_21", "trainable": true, "dtype": "float32", "axis": [3], "momentum": 0.99, "epsilon": 0.001, "center": true, "scale": true, "beta_initializer": {"class_name": "Zeros", "config": {}}, "gamma_initializer": {"class_name": "Ones", "config": {}}, "moving_mean_initializer": {"class_name": "Zeros", "config": {}}, "moving_variance_initializer": {"class_name": "Ones", "config": {}}, "beta_regularizer": null, "gamma_regularizer": null, "beta_constraint": null, "gamma_constraint": null}, "name": "batch_normalization_21", "inbound_nodes": [[["conv2d_14", 0, 0, {}]]]}, {"class_name": "Conv2D", "config": {"name": "conv2d_15", "trainable": true, "dtype": "float32", "filters": 384, "kernel_size": [1, 1], "strides": [1, 1], "padding": "same", "data_format": "channels_last", "dilation_rate": [1, 1], "groups": 1, "activation": "linear", "use_bias": false, "kernel_initializer": {"class_name": "GlorotUniform", "config": {"seed": null}}, "bias_initializer": {"class_name": "Zeros", "config": {}}, "kernel_regularizer": null, "bias_regularizer": null, "activity_regularizer": null, "kernel_constraint": null, "bias_constraint": null}, "name": "conv2d_15", "inbound_nodes": [[["batch_normalization_21", 0, 0, {}]]]}, {"class_name": "BatchNormalization", "config": {"name": "batch_normalization_22", "trainable": true, "dtype": "float32", "axis": [3], "momentum": 0.99, "epsilon": 0.001, "center": true, "scale": true, "beta_initializer": {"class_name": "Zeros", "config": {}}, "gamma_initializer": {"class_name": "Ones", "config": {}}, "moving_mean_initializer": {"class_name": "Zeros", "config": {}}, "moving_variance_initializer": {"class_name": "Ones", "config": {}}, "beta_regularizer": null, "gamma_regularizer": null, "beta_constraint": null, "gamma_constraint": null}, "name": "batch_normalization_22", "inbound_nodes": [[["conv2d_15", 0, 0, {}]]]}, {"class_name": "Activation", "config": {"name": "activation_15", "trainable": true, "dtype": "float32", "activation": "relu6"}, "name": "activation_15", "inbound_nodes": [[["batch_normalization_22", 0, 0, {}]]]}, {"class_name": "DepthwiseConv2D", "config": {"name": "depthwise_conv2d_7", "trainable": true, "dtype": "float32", "kernel_size": [3, 3], "strides": [1, 1], "padding": "same", "data_format": "channels_last", "dilation_rate": [1, 1], "groups": 1, "activation": "linear", "use_bias": true, "bias_initializer": {"class_name": "Zeros", "config": {}}, "bias_regularizer": null, "activity_regularizer": null, "bias_constraint": null, "depth_multiplier": 1, "depthwise_initializer": {"class_name": "GlorotUniform", "config": {"seed": null}}, "depthwise_regularizer": null, "depthwise_constraint": null}, "name": "depthwise_conv2d_7", "inbound_nodes": [[["activation_15", 0, 0, {}]]]}, {"class_name": "BatchNormalization", "config": {"name": "batch_normalization_23", "trainable": true, "dtype": "float32", "axis": [3], "momentum": 0.99, "epsilon": 0.001, "center": true, "scale": true, "beta_initializer": {"class_name": "Zeros", "config": {}}, "gamma_initializer": {"class_name": "Ones", "config": {}}, "moving_mean_initializer": {"class_name": "Zeros", "config": {}}, "moving_variance_initializer": {"class_name": "Ones", "config": {}}, "beta_regularizer": null, "gamma_regularizer": null, "beta_constraint": null, "gamma_constraint": null}, "name": "batch_normalization_23", "inbound_nodes": [[["depthwise_conv2d_7", 0, 0, {}]]]}, {"class_name": "Activation", "config": {"name": "activation_16", "trainable": true, "dtype": "float32", "activation": "relu6"}, "name": "activation_16", "inbound_nodes": [[["batch_normalization_23", 0, 0, {}]]]}, {"class_name": "Conv2D", "config": {"name": "conv2d_16", "trainable": true, "dtype": "float32", "filters": 64, "kernel_size": [1, 1], "strides": [1, 1], "padding": "same", "data_format": "channels_last", "dilation_rate": [1, 1], "groups": 1, "activation": "linear", "use_bias": true, "kernel_initializer": {"class_name": "GlorotUniform", "config": {"seed": null}}, "bias_initializer": {"class_name": "Zeros", "config": {}}, "kernel_regularizer": null, "bias_regularizer": null, "activity_regularizer": null, "kernel_constraint": null, "bias_constraint": null}, "name": "conv2d_16", "inbound_nodes": [[["activation_16", 0, 0, {}]]]}, {"class_name": "BatchNormalization", "config": {"name": "batch_normalization_24", "trainable": true, "dtype": "float32", "axis": [3], "momentum": 0.99, "epsilon": 0.001, "center": true, "scale": true, "beta_initializer": {"class_name": "Zeros", "config": {}}, "gamma_initializer": {"class_name": "Ones", "config": {}}, "moving_mean_initializer": {"class_name": "Zeros", "config": {}}, "moving_variance_initializer": {"class_name": "Ones", "config": {}}, "beta_regularizer": null, "gamma_regularizer": null, "beta_constraint": null, "gamma_constraint": null}, "name": "batch_normalization_24", "inbound_nodes": [[["conv2d_16", 0, 0, {}]]]}, {"class_name": "Add", "config": {"name": "add_3", "trainable": true, "dtype": "float32"}, "name": "add_3", "inbound_nodes": [[["batch_normalization_24", 0, 0, {}], ["batch_normalization_21", 0, 0, {}]]]}, {"class_name": "Conv2D", "config": {"name": "conv2d_17", "trainable": true, "dtype": "float32", "filters": 384, "kernel_size": [1, 1], "strides": [1, 1], "padding": "same", "data_format": "channels_last", "dilation_rate": [1, 1], "groups": 1, "activation": "linear", "use_bias": false, "kernel_initializer": {"class_name": "GlorotUniform", "config": {"seed": null}}, "bias_initializer": {"class_name": "Zeros", "config": {}}, "kernel_regularizer": null, "bias_regularizer": null, "activity_regularizer": null, "kernel_constraint": null, "bias_constraint": null}, "name": "conv2d_17", "inbound_nodes": [[["add_3", 0, 0, {}]]]}, {"class_name": "BatchNormalization", "config": {"name": "batch_normalization_25", "trainable": true, "dtype": "float32", "axis": [3], "momentum": 0.99, "epsilon": 0.001, "center": true, "scale": true, "beta_initializer": {"class_name": "Zeros", "config": {}}, "gamma_initializer": {"class_name": "Ones", "config": {}}, "moving_mean_initializer": {"class_name": "Zeros", "config": {}}, "moving_variance_initializer": {"class_name": "Ones", "config": {}}, "beta_regularizer": null, "gamma_regularizer": null, "beta_constraint": null, "gamma_constraint": null}, "name": "batch_normalization_25", "inbound_nodes": [[["conv2d_17", 0, 0, {}]]]}, {"class_name": "Activation", "config": {"name": "activation_17", "trainable": true, "dtype": "float32", "activation": "relu6"}, "name": "activation_17", "inbound_nodes": [[["batch_normalization_25", 0, 0, {}]]]}, {"class_name": "DepthwiseConv2D", "config": {"name": "depthwise_conv2d_8", "trainable": true, "dtype": "float32", "kernel_size": [3, 3], "strides": [1, 1], "padding": "same", "data_format": "channels_last", "dilation_rate": [1, 1], "groups": 1, "activation": "linear", "use_bias": true, "bias_initializer": {"class_name": "Zeros", "config": {}}, "bias_regularizer": null, "activity_regularizer": null, "bias_constraint": null, "depth_multiplier": 1, "depthwise_initializer": {"class_name": "GlorotUniform", "config": {"seed": null}}, "depthwise_regularizer": null, "depthwise_constraint": null}, "name": "depthwise_conv2d_8", "inbound_nodes": [[["activation_17", 0, 0, {}]]]}, {"class_name": "BatchNormalization", "config": {"name": "batch_normalization_26", "trainable": true, "dtype": "float32", "axis": [3], "momentum": 0.99, "epsilon": 0.001, "center": true, "scale": true, "beta_initializer": {"class_name": "Zeros", "config": {}}, "gamma_initializer": {"class_name": "Ones", "config": {}}, "moving_mean_initializer": {"class_name": "Zeros", "config": {}}, "moving_variance_initializer": {"class_name": "Ones", "config": {}}, "beta_regularizer": null, "gamma_regularizer": null, "beta_constraint": null, "gamma_constraint": null}, "name": "batch_normalization_26", "inbound_nodes": [[["depthwise_conv2d_8", 0, 0, {}]]]}, {"class_name": "Activation", "config": {"name": "activation_18", "trainable": true, "dtype": "float32", "activation": "relu6"}, "name": "activation_18", "inbound_nodes": [[["batch_normalization_26", 0, 0, {}]]]}, {"class_name": "Conv2D", "config": {"name": "conv2d_18", "trainable": true, "dtype": "float32", "filters": 64, "kernel_size": [1, 1], "strides": [1, 1], "padding": "same", "data_format": "channels_last", "dilation_rate": [1, 1], "groups": 1, "activation": "linear", "use_bias": true, "kernel_initializer": {"class_name": "GlorotUniform", "config": {"seed": null}}, "bias_initializer": {"class_name": "Zeros", "config": {}}, "kernel_regularizer": null, "bias_regularizer": null, "activity_regularizer": null, "kernel_constraint": null, "bias_constraint": null}, "name": "conv2d_18", "inbound_nodes": [[["activation_18", 0, 0, {}]]]}, {"class_name": "BatchNormalization", "config": {"name": "batch_normalization_27", "trainable": true, "dtype": "float32", "axis": [3], "momentum": 0.99, "epsilon": 0.001, "center": true, "scale": true, "beta_initializer": {"class_name": "Zeros", "config": {}}, "gamma_initializer": {"class_name": "Ones", "config": {}}, "moving_mean_initializer": {"class_name": "Zeros", "config": {}}, "moving_variance_initializer": {"class_name": "Ones", "config": {}}, "beta_regularizer": null, "gamma_regularizer": null, "beta_constraint": null, "gamma_constraint": null}, "name": "batch_normalization_27", "inbound_nodes": [[["conv2d_18", 0, 0, {}]]]}, {"class_name": "Add", "config": {"name": "add_4", "trainable": true, "dtype": "float32"}, "name": "add_4", "inbound_nodes": [[["batch_normalization_27", 0, 0, {}], ["add_3", 0, 0, {}]]]}, {"class_name": "Conv2D", "config": {"name": "conv2d_19", "trainable": true, "dtype": "float32", "filters": 384, "kernel_size": [1, 1], "strides": [1, 1], "padding": "same", "data_format": "channels_last", "dilation_rate": [1, 1], "groups": 1, "activation": "linear", "use_bias": false, "kernel_initializer": {"class_name": "GlorotUniform", "config": {"seed": null}}, "bias_initializer": {"class_name": "Zeros", "config": {}}, "kernel_regularizer": null, "bias_regularizer": null, "activity_regularizer": null, "kernel_constraint": null, "bias_constraint": null}, "name": "conv2d_19", "inbound_nodes": [[["add_4", 0, 0, {}]]]}, {"class_name": "BatchNormalization", "config": {"name": "batch_normalization_28", "trainable": true, "dtype": "float32", "axis": [3], "momentum": 0.99, "epsilon": 0.001, "center": true, "scale": true, "beta_initializer": {"class_name": "Zeros", "config": {}}, "gamma_initializer": {"class_name": "Ones", "config": {}}, "moving_mean_initializer": {"class_name": "Zeros", "config": {}}, "moving_variance_initializer": {"class_name": "Ones", "config": {}}, "beta_regularizer": null, "gamma_regularizer": null, "beta_constraint": null, "gamma_constraint": null}, "name": "batch_normalization_28", "inbound_nodes": [[["conv2d_19", 0, 0, {}]]]}, {"class_name": "Activation", "config": {"name": "activation_19", "trainable": true, "dtype": "float32", "activation": "relu6"}, "name": "activation_19", "inbound_nodes": [[["batch_normalization_28", 0, 0, {}]]]}, {"class_name": "DepthwiseConv2D", "config": {"name": "depthwise_conv2d_9", "trainable": true, "dtype": "float32", "kernel_size": [3, 3], "strides": [1, 1], "padding": "same", "data_format": "channels_last", "dilation_rate": [1, 1], "groups": 1, "activation": "linear", "use_bias": true, "bias_initializer": {"class_name": "Zeros", "config": {}}, "bias_regularizer": null, "activity_regularizer": null, "bias_constraint": null, "depth_multiplier": 1, "depthwise_initializer": {"class_name": "GlorotUniform", "config": {"seed": null}}, "depthwise_regularizer": null, "depthwise_constraint": null}, "name": "depthwise_conv2d_9", "inbound_nodes": [[["activation_19", 0, 0, {}]]]}, {"class_name": "BatchNormalization", "config": {"name": "batch_normalization_29", "trainable": true, "dtype": "float32", "axis": [3], "momentum": 0.99, "epsilon": 0.001, "center": true, "scale": true, "beta_initializer": {"class_name": "Zeros", "config": {}}, "gamma_initializer": {"class_name": "Ones", "config": {}}, "moving_mean_initializer": {"class_name": "Zeros", "config": {}}, "moving_variance_initializer": {"class_name": "Ones", "config": {}}, "beta_regularizer": null, "gamma_regularizer": null, "beta_constraint": null, "gamma_constraint": null}, "name": "batch_normalization_29", "inbound_nodes": [[["depthwise_conv2d_9", 0, 0, {}]]]}, {"class_name": "Activation", "config": {"name": "activation_20", "trainable": true, "dtype": "float32", "activation": "relu6"}, "name": "activation_20", "inbound_nodes": [[["batch_normalization_29", 0, 0, {}]]]}, {"class_name": "Conv2D", "config": {"name": "conv2d_20", "trainable": true, "dtype": "float32", "filters": 64, "kernel_size": [1, 1], "strides": [1, 1], "padding": "same", "data_format": "channels_last", "dilation_rate": [1, 1], "groups": 1, "activation": "linear", "use_bias": true, "kernel_initializer": {"class_name": "GlorotUniform", "config": {"seed": null}}, "bias_initializer": {"class_name": "Zeros", "config": {}}, "kernel_regularizer": null, "bias_regularizer": null, "activity_regularizer": null, "kernel_constraint": null, "bias_constraint": null}, "name": "conv2d_20", "inbound_nodes": [[["activation_20", 0, 0, {}]]]}, {"class_name": "BatchNormalization", "config": {"name": "batch_normalization_30", "trainable": true, "dtype": "float32", "axis": [3], "momentum": 0.99, "epsilon": 0.001, "center": true, "scale": true, "beta_initializer": {"class_name": "Zeros", "config": {}}, "gamma_initializer": {"class_name": "Ones", "config": {}}, "moving_mean_initializer": {"class_name": "Zeros", "config": {}}, "moving_variance_initializer": {"class_name": "Ones", "config": {}}, "beta_regularizer": null, "gamma_regularizer": null, "beta_constraint": null, "gamma_constraint": null}, "name": "batch_normalization_30", "inbound_nodes": [[["conv2d_20", 0, 0, {}]]]}, {"class_name": "Add", "config": {"name": "add_5", "trainable": true, "dtype": "float32"}, "name": "add_5", "inbound_nodes": [[["batch_normalization_30", 0, 0, {}], ["add_4", 0, 0, {}]]]}, {"class_name": "Conv2D", "config": {"name": "conv2d_21", "trainable": true, "dtype": "float32", "filters": 384, "kernel_size": [1, 1], "strides": [1, 1], "padding": "same", "data_format": "channels_last", "dilation_rate": [1, 1], "groups": 1, "activation": "linear", "use_bias": false, "kernel_initializer": {"class_name": "GlorotUniform", "config": {"seed": null}}, "bias_initializer": {"class_name": "Zeros", "config": {}}, "kernel_regularizer": null, "bias_regularizer": null, "activity_regularizer": null, "kernel_constraint": null, "bias_constraint": null}, "name": "conv2d_21", "inbound_nodes": [[["add_5", 0, 0, {}]]]}, {"class_name": "BatchNormalization", "config": {"name": "batch_normalization_31", "trainable": true, "dtype": "float32", "axis": [3], "momentum": 0.99, "epsilon": 0.001, "center": true, "scale": true, "beta_initializer": {"class_name": "Zeros", "config": {}}, "gamma_initializer": {"class_name": "Ones", "config": {}}, "moving_mean_initializer": {"class_name": "Zeros", "config": {}}, "moving_variance_initializer": {"class_name": "Ones", "config": {}}, "beta_regularizer": null, "gamma_regularizer": null, "beta_constraint": null, "gamma_constraint": null}, "name": "batch_normalization_31", "inbound_nodes": [[["conv2d_21", 0, 0, {}]]]}, {"class_name": "Activation", "config": {"name": "activation_21", "trainable": true, "dtype": "float32", "activation": "relu6"}, "name": "activation_21", "inbound_nodes": [[["batch_normalization_31", 0, 0, {}]]]}, {"class_name": "DepthwiseConv2D", "config": {"name": "depthwise_conv2d_10", "trainable": true, "dtype": "float32", "kernel_size": [3, 3], "strides": [1, 1], "padding": "same", "data_format": "channels_last", "dilation_rate": [1, 1], "groups": 1, "activation": "linear", "use_bias": true, "bias_initializer": {"class_name": "Zeros", "config": {}}, "bias_regularizer": null, "activity_regularizer": null, "bias_constraint": null, "depth_multiplier": 1, "depthwise_initializer": {"class_name": "GlorotUniform", "config": {"seed": null}}, "depthwise_regularizer": null, "depthwise_constraint": null}, "name": "depthwise_conv2d_10", "inbound_nodes": [[["activation_21", 0, 0, {}]]]}, {"class_name": "BatchNormalization", "config": {"name": "batch_normalization_32", "trainable": true, "dtype": "float32", "axis": [3], "momentum": 0.99, "epsilon": 0.001, "center": true, "scale": true, "beta_initializer": {"class_name": "Zeros", "config": {}}, "gamma_initializer": {"class_name": "Ones", "config": {}}, "moving_mean_initializer": {"class_name": "Zeros", "config": {}}, "moving_variance_initializer": {"class_name": "Ones", "config": {}}, "beta_regularizer": null, "gamma_regularizer": null, "beta_constraint": null, "gamma_constraint": null}, "name": "batch_normalization_32", "inbound_nodes": [[["depthwise_conv2d_10", 0, 0, {}]]]}, {"class_name": "Activation", "config": {"name": "activation_22", "trainable": true, "dtype": "float32", "activation": "relu6"}, "name": "activation_22", "inbound_nodes": [[["batch_normalization_32", 0, 0, {}]]]}, {"class_name": "Conv2D", "config": {"name": "conv2d_22", "trainable": true, "dtype": "float32", "filters": 96, "kernel_size": [1, 1], "strides": [1, 1], "padding": "same", "data_format": "channels_last", "dilation_rate": [1, 1], "groups": 1, "activation": "linear", "use_bias": true, "kernel_initializer": {"class_name": "GlorotUniform", "config": {"seed": null}}, "bias_initializer": {"class_name": "Zeros", "config": {}}, "kernel_regularizer": null, "bias_regularizer": null, "activity_regularizer": null, "kernel_constraint": null, "bias_constraint": null}, "name": "conv2d_22", "inbound_nodes": [[["activation_22", 0, 0, {}]]]}, {"class_name": "BatchNormalization", "config": {"name": "batch_normalization_33", "trainable": true, "dtype": "float32", "axis": [3], "momentum": 0.99, "epsilon": 0.001, "center": true, "scale": true, "beta_initializer": {"class_name": "Zeros", "config": {}}, "gamma_initializer": {"class_name": "Ones", "config": {}}, "moving_mean_initializer": {"class_name": "Zeros", "config": {}}, "moving_variance_initializer": {"class_name": "Ones", "config": {}}, "beta_regularizer": null, "gamma_regularizer": null, "beta_constraint": null, "gamma_constraint": null}, "name": "batch_normalization_33", "inbound_nodes": [[["conv2d_22", 0, 0, {}]]]}, {"class_name": "Conv2D", "config": {"name": "conv2d_23", "trainable": true, "dtype": "float32", "filters": 576, "kernel_size": [1, 1], "strides": [1, 1], "padding": "same", "data_format": "channels_last", "dilation_rate": [1, 1], "groups": 1, "activation": "linear", "use_bias": false, "kernel_initializer": {"class_name": "GlorotUniform", "config": {"seed": null}}, "bias_initializer": {"class_name": "Zeros", "config": {}}, "kernel_regularizer": null, "bias_regularizer": null, "activity_regularizer": null, "kernel_constraint": null, "bias_constraint": null}, "name": "conv2d_23", "inbound_nodes": [[["batch_normalization_33", 0, 0, {}]]]}, {"class_name": "BatchNormalization", "config": {"name": "batch_normalization_34", "trainable": true, "dtype": "float32", "axis": [3], "momentum": 0.99, "epsilon": 0.001, "center": true, "scale": true, "beta_initializer": {"class_name": "Zeros", "config": {}}, "gamma_initializer": {"class_name": "Ones", "config": {}}, "moving_mean_initializer": {"class_name": "Zeros", "config": {}}, "moving_variance_initializer": {"class_name": "Ones", "config": {}}, "beta_regularizer": null, "gamma_regularizer": null, "beta_constraint": null, "gamma_constraint": null}, "name": "batch_normalization_34", "inbound_nodes": [[["conv2d_23", 0, 0, {}]]]}, {"class_name": "Activation", "config": {"name": "activation_23", "trainable": true, "dtype": "float32", "activation": "relu6"}, "name": "activation_23", "inbound_nodes": [[["batch_normalization_34", 0, 0, {}]]]}, {"class_name": "DepthwiseConv2D", "config": {"name": "depthwise_conv2d_11", "trainable": true, "dtype": "float32", "kernel_size": [3, 3], "strides": [1, 1], "padding": "same", "data_format": "channels_last", "dilation_rate": [1, 1], "groups": 1, "activation": "linear", "use_bias": true, "bias_initializer": {"class_name": "Zeros", "config": {}}, "bias_regularizer": null, "activity_regularizer": null, "bias_constraint": null, "depth_multiplier": 1, "depthwise_initializer": {"class_name": "GlorotUniform", "config": {"seed": null}}, "depthwise_regularizer": null, "depthwise_constraint": null}, "name": "depthwise_conv2d_11", "inbound_nodes": [[["activation_23", 0, 0, {}]]]}, {"class_name": "BatchNormalization", "config": {"name": "batch_normalization_35", "trainable": true, "dtype": "float32", "axis": [3], "momentum": 0.99, "epsilon": 0.001, "center": true, "scale": true, "beta_initializer": {"class_name": "Zeros", "config": {}}, "gamma_initializer": {"class_name": "Ones", "config": {}}, "moving_mean_initializer": {"class_name": "Zeros", "config": {}}, "moving_variance_initializer": {"class_name": "Ones", "config": {}}, "beta_regularizer": null, "gamma_regularizer": null, "beta_constraint": null, "gamma_constraint": null}, "name": "batch_normalization_35", "inbound_nodes": [[["depthwise_conv2d_11", 0, 0, {}]]]}, {"class_name": "Activation", "config": {"name": "activation_24", "trainable": true, "dtype": "float32", "activation": "relu6"}, "name": "activation_24", "inbound_nodes": [[["batch_normalization_35", 0, 0, {}]]]}, {"class_name": "Conv2D", "config": {"name": "conv2d_24", "trainable": true, "dtype": "float32", "filters": 96, "kernel_size": [1, 1], "strides": [1, 1], "padding": "same", "data_format": "channels_last", "dilation_rate": [1, 1], "groups": 1, "activation": "linear", "use_bias": true, "kernel_initializer": {"class_name": "GlorotUniform", "config": {"seed": null}}, "bias_initializer": {"class_name": "Zeros", "config": {}}, "kernel_regularizer": null, "bias_regularizer": null, "activity_regularizer": null, "kernel_constraint": null, "bias_constraint": null}, "name": "conv2d_24", "inbound_nodes": [[["activation_24", 0, 0, {}]]]}, {"class_name": "BatchNormalization", "config": {"name": "batch_normalization_36", "trainable": true, "dtype": "float32", "axis": [3], "momentum": 0.99, "epsilon": 0.001, "center": true, "scale": true, "beta_initializer": {"class_name": "Zeros", "config": {}}, "gamma_initializer": {"class_name": "Ones", "config": {}}, "moving_mean_initializer": {"class_name": "Zeros", "config": {}}, "moving_variance_initializer": {"class_name": "Ones", "config": {}}, "beta_regularizer": null, "gamma_regularizer": null, "beta_constraint": null, "gamma_constraint": null}, "name": "batch_normalization_36", "inbound_nodes": [[["conv2d_24", 0, 0, {}]]]}, {"class_name": "Add", "config": {"name": "add_6", "trainable": true, "dtype": "float32"}, "name": "add_6", "inbound_nodes": [[["batch_normalization_36", 0, 0, {}], ["batch_normalization_33", 0, 0, {}]]]}, {"class_name": "Conv2D", "config": {"name": "conv2d_25", "trainable": true, "dtype": "float32", "filters": 576, "kernel_size": [1, 1], "strides": [1, 1], "padding": "same", "data_format": "channels_last", "dilation_rate": [1, 1], "groups": 1, "activation": "linear", "use_bias": false, "kernel_initializer": {"class_name": "GlorotUniform", "config": {"seed": null}}, "bias_initializer": {"class_name": "Zeros", "config": {}}, "kernel_regularizer": null, "bias_regularizer": null, "activity_regularizer": null, "kernel_constraint": null, "bias_constraint": null}, "name": "conv2d_25", "inbound_nodes": [[["add_6", 0, 0, {}]]]}, {"class_name": "BatchNormalization", "config": {"name": "batch_normalization_37", "trainable": true, "dtype": "float32", "axis": [3], "momentum": 0.99, "epsilon": 0.001, "center": true, "scale": true, "beta_initializer": {"class_name": "Zeros", "config": {}}, "gamma_initializer": {"class_name": "Ones", "config": {}}, "moving_mean_initializer": {"class_name": "Zeros", "config": {}}, "moving_variance_initializer": {"class_name": "Ones", "config": {}}, "beta_regularizer": null, "gamma_regularizer": null, "beta_constraint": null, "gamma_constraint": null}, "name": "batch_normalization_37", "inbound_nodes": [[["conv2d_25", 0, 0, {}]]]}, {"class_name": "Activation", "config": {"name": "activation_25", "trainable": true, "dtype": "float32", "activation": "relu6"}, "name": "activation_25", "inbound_nodes": [[["batch_normalization_37", 0, 0, {}]]]}, {"class_name": "DepthwiseConv2D", "config": {"name": "depthwise_conv2d_12", "trainable": true, "dtype": "float32", "kernel_size": [3, 3], "strides": [1, 1], "padding": "same", "data_format": "channels_last", "dilation_rate": [1, 1], "groups": 1, "activation": "linear", "use_bias": true, "bias_initializer": {"class_name": "Zeros", "config": {}}, "bias_regularizer": null, "activity_regularizer": null, "bias_constraint": null, "depth_multiplier": 1, "depthwise_initializer": {"class_name": "GlorotUniform", "config": {"seed": null}}, "depthwise_regularizer": null, "depthwise_constraint": null}, "name": "depthwise_conv2d_12", "inbound_nodes": [[["activation_25", 0, 0, {}]]]}, {"class_name": "BatchNormalization", "config": {"name": "batch_normalization_38", "trainable": true, "dtype": "float32", "axis": [3], "momentum": 0.99, "epsilon": 0.001, "center": true, "scale": true, "beta_initializer": {"class_name": "Zeros", "config": {}}, "gamma_initializer": {"class_name": "Ones", "config": {}}, "moving_mean_initializer": {"class_name": "Zeros", "config": {}}, "moving_variance_initializer": {"class_name": "Ones", "config": {}}, "beta_regularizer": null, "gamma_regularizer": null, "beta_constraint": null, "gamma_constraint": null}, "name": "batch_normalization_38", "inbound_nodes": [[["depthwise_conv2d_12", 0, 0, {}]]]}, {"class_name": "Activation", "config": {"name": "activation_26", "trainable": true, "dtype": "float32", "activation": "relu6"}, "name": "activation_26", "inbound_nodes": [[["batch_normalization_38", 0, 0, {}]]]}, {"class_name": "Conv2D", "config": {"name": "conv2d_26", "trainable": true, "dtype": "float32", "filters": 96, "kernel_size": [1, 1], "strides": [1, 1], "padding": "same", "data_format": "channels_last", "dilation_rate": [1, 1], "groups": 1, "activation": "linear", "use_bias": true, "kernel_initializer": {"class_name": "GlorotUniform", "config": {"seed": null}}, "bias_initializer": {"class_name": "Zeros", "config": {}}, "kernel_regularizer": null, "bias_regularizer": null, "activity_regularizer": null, "kernel_constraint": null, "bias_constraint": null}, "name": "conv2d_26", "inbound_nodes": [[["activation_26", 0, 0, {}]]]}, {"class_name": "BatchNormalization", "config": {"name": "batch_normalization_39", "trainable": true, "dtype": "float32", "axis": [3], "momentum": 0.99, "epsilon": 0.001, "center": true, "scale": true, "beta_initializer": {"class_name": "Zeros", "config": {}}, "gamma_initializer": {"class_name": "Ones", "config": {}}, "moving_mean_initializer": {"class_name": "Zeros", "config": {}}, "moving_variance_initializer": {"class_name": "Ones", "config": {}}, "beta_regularizer": null, "gamma_regularizer": null, "beta_constraint": null, "gamma_constraint": null}, "name": "batch_normalization_39", "inbound_nodes": [[["conv2d_26", 0, 0, {}]]]}, {"class_name": "Add", "config": {"name": "add_7", "trainable": true, "dtype": "float32"}, "name": "add_7", "inbound_nodes": [[["batch_normalization_39", 0, 0, {}], ["add_6", 0, 0, {}]]]}, {"class_name": "Conv2D", "config": {"name": "conv2d_27", "trainable": true, "dtype": "float32", "filters": 576, "kernel_size": [1, 1], "strides": [1, 1], "padding": "same", "data_format": "channels_last", "dilation_rate": [1, 1], "groups": 1, "activation": "linear", "use_bias": false, "kernel_initializer": {"class_name": "GlorotUniform", "config": {"seed": null}}, "bias_initializer": {"class_name": "Zeros", "config": {}}, "kernel_regularizer": null, "bias_regularizer": null, "activity_regularizer": null, "kernel_constraint": null, "bias_constraint": null}, "name": "conv2d_27", "inbound_nodes": [[["add_7", 0, 0, {}]]]}, {"class_name": "BatchNormalization", "config": {"name": "batch_normalization_40", "trainable": true, "dtype": "float32", "axis": [3], "momentum": 0.99, "epsilon": 0.001, "center": true, "scale": true, "beta_initializer": {"class_name": "Zeros", "config": {}}, "gamma_initializer": {"class_name": "Ones", "config": {}}, "moving_mean_initializer": {"class_name": "Zeros", "config": {}}, "moving_variance_initializer": {"class_name": "Ones", "config": {}}, "beta_regularizer": null, "gamma_regularizer": null, "beta_constraint": null, "gamma_constraint": null}, "name": "batch_normalization_40", "inbound_nodes": [[["conv2d_27", 0, 0, {}]]]}, {"class_name": "Activation", "config": {"name": "activation_27", "trainable": true, "dtype": "float32", "activation": "relu6"}, "name": "activation_27", "inbound_nodes": [[["batch_normalization_40", 0, 0, {}]]]}, {"class_name": "DepthwiseConv2D", "config": {"name": "depthwise_conv2d_13", "trainable": true, "dtype": "float32", "kernel_size": [3, 3], "strides": [2, 2], "padding": "same", "data_format": "channels_last", "dilation_rate": [1, 1], "groups": 1, "activation": "linear", "use_bias": true, "bias_initializer": {"class_name": "Zeros", "config": {}}, "bias_regularizer": null, "activity_regularizer": null, "bias_constraint": null, "depth_multiplier": 1, "depthwise_initializer": {"class_name": "GlorotUniform", "config": {"seed": null}}, "depthwise_regularizer": null, "depthwise_constraint": null}, "name": "depthwise_conv2d_13", "inbound_nodes": [[["activation_27", 0, 0, {}]]]}, {"class_name": "BatchNormalization", "config": {"name": "batch_normalization_41", "trainable": true, "dtype": "float32", "axis": [3], "momentum": 0.99, "epsilon": 0.001, "center": true, "scale": true, "beta_initializer": {"class_name": "Zeros", "config": {}}, "gamma_initializer": {"class_name": "Ones", "config": {}}, "moving_mean_initializer": {"class_name": "Zeros", "config": {}}, "moving_variance_initializer": {"class_name": "Ones", "config": {}}, "beta_regularizer": null, "gamma_regularizer": null, "beta_constraint": null, "gamma_constraint": null}, "name": "batch_normalization_41", "inbound_nodes": [[["depthwise_conv2d_13", 0, 0, {}]]]}, {"class_name": "Activation", "config": {"name": "activation_28", "trainable": true, "dtype": "float32", "activation": "relu6"}, "name": "activation_28", "inbound_nodes": [[["batch_normalization_41", 0, 0, {}]]]}, {"class_name": "Conv2D", "config": {"name": "conv2d_28", "trainable": true, "dtype": "float32", "filters": 160, "kernel_size": [1, 1], "strides": [1, 1], "padding": "same", "data_format": "channels_last", "dilation_rate": [1, 1], "groups": 1, "activation": "linear", "use_bias": true, "kernel_initializer": {"class_name": "GlorotUniform", "config": {"seed": null}}, "bias_initializer": {"class_name": "Zeros", "config": {}}, "kernel_regularizer": null, "bias_regularizer": null, "activity_regularizer": null, "kernel_constraint": null, "bias_constraint": null}, "name": "conv2d_28", "inbound_nodes": [[["activation_28", 0, 0, {}]]]}, {"class_name": "BatchNormalization", "config": {"name": "batch_normalization_42", "trainable": true, "dtype": "float32", "axis": [3], "momentum": 0.99, "epsilon": 0.001, "center": true, "scale": true, "beta_initializer": {"class_name": "Zeros", "config": {}}, "gamma_initializer": {"class_name": "Ones", "config": {}}, "moving_mean_initializer": {"class_name": "Zeros", "config": {}}, "moving_variance_initializer": {"class_name": "Ones", "config": {}}, "beta_regularizer": null, "gamma_regularizer": null, "beta_constraint": null, "gamma_constraint": null}, "name": "batch_normalization_42", "inbound_nodes": [[["conv2d_28", 0, 0, {}]]]}, {"class_name": "Conv2D", "config": {"name": "conv2d_29", "trainable": true, "dtype": "float32", "filters": 960, "kernel_size": [1, 1], "strides": [1, 1], "padding": "same", "data_format": "channels_last", "dilation_rate": [1, 1], "groups": 1, "activation": "linear", "use_bias": false, "kernel_initializer": {"class_name": "GlorotUniform", "config": {"seed": null}}, "bias_initializer": {"class_name": "Zeros", "config": {}}, "kernel_regularizer": null, "bias_regularizer": null, "activity_regularizer": null, "kernel_constraint": null, "bias_constraint": null}, "name": "conv2d_29", "inbound_nodes": [[["batch_normalization_42", 0, 0, {}]]]}, {"class_name": "BatchNormalization", "config": {"name": "batch_normalization_43", "trainable": true, "dtype": "float32", "axis": [3], "momentum": 0.99, "epsilon": 0.001, "center": true, "scale": true, "beta_initializer": {"class_name": "Zeros", "config": {}}, "gamma_initializer": {"class_name": "Ones", "config": {}}, "moving_mean_initializer": {"class_name": "Zeros", "config": {}}, "moving_variance_initializer": {"class_name": "Ones", "config": {}}, "beta_regularizer": null, "gamma_regularizer": null, "beta_constraint": null, "gamma_constraint": null}, "name": "batch_normalization_43", "inbound_nodes": [[["conv2d_29", 0, 0, {}]]]}, {"class_name": "Activation", "config": {"name": "activation_29", "trainable": true, "dtype": "float32", "activation": "relu6"}, "name": "activation_29", "inbound_nodes": [[["batch_normalization_43", 0, 0, {}]]]}, {"class_name": "DepthwiseConv2D", "config": {"name": "depthwise_conv2d_14", "trainable": true, "dtype": "float32", "kernel_size": [3, 3], "strides": [1, 1], "padding": "same", "data_format": "channels_last", "dilation_rate": [1, 1], "groups": 1, "activation": "linear", "use_bias": true, "bias_initializer": {"class_name": "Zeros", "config": {}}, "bias_regularizer": null, "activity_regularizer": null, "bias_constraint": null, "depth_multiplier": 1, "depthwise_initializer": {"class_name": "GlorotUniform", "config": {"seed": null}}, "depthwise_regularizer": null, "depthwise_constraint": null}, "name": "depthwise_conv2d_14", "inbound_nodes": [[["activation_29", 0, 0, {}]]]}, {"class_name": "BatchNormalization", "config": {"name": "batch_normalization_44", "trainable": true, "dtype": "float32", "axis": [3], "momentum": 0.99, "epsilon": 0.001, "center": true, "scale": true, "beta_initializer": {"class_name": "Zeros", "config": {}}, "gamma_initializer": {"class_name": "Ones", "config": {}}, "moving_mean_initializer": {"class_name": "Zeros", "config": {}}, "moving_variance_initializer": {"class_name": "Ones", "config": {}}, "beta_regularizer": null, "gamma_regularizer": null, "beta_constraint": null, "gamma_constraint": null}, "name": "batch_normalization_44", "inbound_nodes": [[["depthwise_conv2d_14", 0, 0, {}]]]}, {"class_name": "Activation", "config": {"name": "activation_30", "trainable": true, "dtype": "float32", "activation": "relu6"}, "name": "activation_30", "inbound_nodes": [[["batch_normalization_44", 0, 0, {}]]]}, {"class_name": "Conv2D", "config": {"name": "conv2d_30", "trainable": true, "dtype": "float32", "filters": 160, "kernel_size": [1, 1], "strides": [1, 1], "padding": "same", "data_format": "channels_last", "dilation_rate": [1, 1], "groups": 1, "activation": "linear", "use_bias": true, "kernel_initializer": {"class_name": "GlorotUniform", "config": {"seed": null}}, "bias_initializer": {"class_name": "Zeros", "config": {}}, "kernel_regularizer": null, "bias_regularizer": null, "activity_regularizer": null, "kernel_constraint": null, "bias_constraint": null}, "name": "conv2d_30", "inbound_nodes": [[["activation_30", 0, 0, {}]]]}, {"class_name": "BatchNormalization", "config": {"name": "batch_normalization_45", "trainable": true, "dtype": "float32", "axis": [3], "momentum": 0.99, "epsilon": 0.001, "center": true, "scale": true, "beta_initializer": {"class_name": "Zeros", "config": {}}, "gamma_initializer": {"class_name": "Ones", "config": {}}, "moving_mean_initializer": {"class_name": "Zeros", "config": {}}, "moving_variance_initializer": {"class_name": "Ones", "config": {}}, "beta_regularizer": null, "gamma_regularizer": null, "beta_constraint": null, "gamma_constraint": null}, "name": "batch_normalization_45", "inbound_nodes": [[["conv2d_30", 0, 0, {}]]]}, {"class_name": "Add", "config": {"name": "add_8", "trainable": true, "dtype": "float32"}, "name": "add_8", "inbound_nodes": [[["batch_normalization_45", 0, 0, {}], ["batch_normalization_42", 0, 0, {}]]]}, {"class_name": "Conv2D", "config": {"name": "conv2d_31", "trainable": true, "dtype": "float32", "filters": 960, "kernel_size": [1, 1], "strides": [1, 1], "padding": "same", "data_format": "channels_last", "dilation_rate": [1, 1], "groups": 1, "activation": "linear", "use_bias": false, "kernel_initializer": {"class_name": "GlorotUniform", "config": {"seed": null}}, "bias_initializer": {"class_name": "Zeros", "config": {}}, "kernel_regularizer": null, "bias_regularizer": null, "activity_regularizer": null, "kernel_constraint": null, "bias_constraint": null}, "name": "conv2d_31", "inbound_nodes": [[["add_8", 0, 0, {}]]]}, {"class_name": "BatchNormalization", "config": {"name": "batch_normalization_46", "trainable": true, "dtype": "float32", "axis": [3], "momentum": 0.99, "epsilon": 0.001, "center": true, "scale": true, "beta_initializer": {"class_name": "Zeros", "config": {}}, "gamma_initializer": {"class_name": "Ones", "config": {}}, "moving_mean_initializer": {"class_name": "Zeros", "config": {}}, "moving_variance_initializer": {"class_name": "Ones", "config": {}}, "beta_regularizer": null, "gamma_regularizer": null, "beta_constraint": null, "gamma_constraint": null}, "name": "batch_normalization_46", "inbound_nodes": [[["conv2d_31", 0, 0, {}]]]}, {"class_name": "Activation", "config": {"name": "activation_31", "trainable": true, "dtype": "float32", "activation": "relu6"}, "name": "activation_31", "inbound_nodes": [[["batch_normalization_46", 0, 0, {}]]]}, {"class_name": "DepthwiseConv2D", "config": {"name": "depthwise_conv2d_15", "trainable": true, "dtype": "float32", "kernel_size": [3, 3], "strides": [1, 1], "padding": "same", "data_format": "channels_last", "dilation_rate": [1, 1], "groups": 1, "activation": "linear", "use_bias": true, "bias_initializer": {"class_name": "Zeros", "config": {}}, "bias_regularizer": null, "activity_regularizer": null, "bias_constraint": null, "depth_multiplier": 1, "depthwise_initializer": {"class_name": "GlorotUniform", "config": {"seed": null}}, "depthwise_regularizer": null, "depthwise_constraint": null}, "name": "depthwise_conv2d_15", "inbound_nodes": [[["activation_31", 0, 0, {}]]]}, {"class_name": "BatchNormalization", "config": {"name": "batch_normalization_47", "trainable": true, "dtype": "float32", "axis": [3], "momentum": 0.99, "epsilon": 0.001, "center": true, "scale": true, "beta_initializer": {"class_name": "Zeros", "config": {}}, "gamma_initializer": {"class_name": "Ones", "config": {}}, "moving_mean_initializer": {"class_name": "Zeros", "config": {}}, "moving_variance_initializer": {"class_name": "Ones", "config": {}}, "beta_regularizer": null, "gamma_regularizer": null, "beta_constraint": null, "gamma_constraint": null}, "name": "batch_normalization_47", "inbound_nodes": [[["depthwise_conv2d_15", 0, 0, {}]]]}, {"class_name": "Activation", "config": {"name": "activation_32", "trainable": true, "dtype": "float32", "activation": "relu6"}, "name": "activation_32", "inbound_nodes": [[["batch_normalization_47", 0, 0, {}]]]}, {"class_name": "Conv2D", "config": {"name": "conv2d_32", "trainable": true, "dtype": "float32", "filters": 160, "kernel_size": [1, 1], "strides": [1, 1], "padding": "same", "data_format": "channels_last", "dilation_rate": [1, 1], "groups": 1, "activation": "linear", "use_bias": true, "kernel_initializer": {"class_name": "GlorotUniform", "config": {"seed": null}}, "bias_initializer": {"class_name": "Zeros", "config": {}}, "kernel_regularizer": null, "bias_regularizer": null, "activity_regularizer": null, "kernel_constraint": null, "bias_constraint": null}, "name": "conv2d_32", "inbound_nodes": [[["activation_32", 0, 0, {}]]]}, {"class_name": "BatchNormalization", "config": {"name": "batch_normalization_48", "trainable": true, "dtype": "float32", "axis": [3], "momentum": 0.99, "epsilon": 0.001, "center": true, "scale": true, "beta_initializer": {"class_name": "Zeros", "config": {}}, "gamma_initializer": {"class_name": "Ones", "config": {}}, "moving_mean_initializer": {"class_name": "Zeros", "config": {}}, "moving_variance_initializer": {"class_name": "Ones", "config": {}}, "beta_regularizer": null, "gamma_regularizer": null, "beta_constraint": null, "gamma_constraint": null}, "name": "batch_normalization_48", "inbound_nodes": [[["conv2d_32", 0, 0, {}]]]}, {"class_name": "Add", "config": {"name": "add_9", "trainable": true, "dtype": "float32"}, "name": "add_9", "inbound_nodes": [[["batch_normalization_48", 0, 0, {}], ["add_8", 0, 0, {}]]]}, {"class_name": "Conv2D", "config": {"name": "conv2d_33", "trainable": true, "dtype": "float32", "filters": 960, "kernel_size": [1, 1], "strides": [1, 1], "padding": "same", "data_format": "channels_last", "dilation_rate": [1, 1], "groups": 1, "activation": "linear", "use_bias": false, "kernel_initializer": {"class_name": "GlorotUniform", "config": {"seed": null}}, "bias_initializer": {"class_name": "Zeros", "config": {}}, "kernel_regularizer": null, "bias_regularizer": null, "activity_regularizer": null, "kernel_constraint": null, "bias_constraint": null}, "name": "conv2d_33", "inbound_nodes": [[["add_9", 0, 0, {}]]]}, {"class_name": "BatchNormalization", "config": {"name": "batch_normalization_49", "trainable": true, "dtype": "float32", "axis": [3], "momentum": 0.99, "epsilon": 0.001, "center": true, "scale": true, "beta_initializer": {"class_name": "Zeros", "config": {}}, "gamma_initializer": {"class_name": "Ones", "config": {}}, "moving_mean_initializer": {"class_name": "Zeros", "config": {}}, "moving_variance_initializer": {"class_name": "Ones", "config": {}}, "beta_regularizer": null, "gamma_regularizer": null, "beta_constraint": null, "gamma_constraint": null}, "name": "batch_normalization_49", "inbound_nodes": [[["conv2d_33", 0, 0, {}]]]}, {"class_name": "Activation", "config": {"name": "activation_33", "trainable": true, "dtype": "float32", "activation": "relu6"}, "name": "activation_33", "inbound_nodes": [[["batch_normalization_49", 0, 0, {}]]]}, {"class_name": "DepthwiseConv2D", "config": {"name": "depthwise_conv2d_16", "trainable": true, "dtype": "float32", "kernel_size": [3, 3], "strides": [1, 1], "padding": "same", "data_format": "channels_last", "dilation_rate": [1, 1], "groups": 1, "activation": "linear", "use_bias": true, "bias_initializer": {"class_name": "Zeros", "config": {}}, "bias_regularizer": null, "activity_regularizer": null, "bias_constraint": null, "depth_multiplier": 1, "depthwise_initializer": {"class_name": "GlorotUniform", "config": {"seed": null}}, "depthwise_regularizer": null, "depthwise_constraint": null}, "name": "depthwise_conv2d_16", "inbound_nodes": [[["activation_33", 0, 0, {}]]]}, {"class_name": "BatchNormalization", "config": {"name": "batch_normalization_50", "trainable": true, "dtype": "float32", "axis": [3], "momentum": 0.99, "epsilon": 0.001, "center": true, "scale": true, "beta_initializer": {"class_name": "Zeros", "config": {}}, "gamma_initializer": {"class_name": "Ones", "config": {}}, "moving_mean_initializer": {"class_name": "Zeros", "config": {}}, "moving_variance_initializer": {"class_name": "Ones", "config": {}}, "beta_regularizer": null, "gamma_regularizer": null, "beta_constraint": null, "gamma_constraint": null}, "name": "batch_normalization_50", "inbound_nodes": [[["depthwise_conv2d_16", 0, 0, {}]]]}, {"class_name": "Activation", "config": {"name": "activation_34", "trainable": true, "dtype": "float32", "activation": "relu6"}, "name": "activation_34", "inbound_nodes": [[["batch_normalization_50", 0, 0, {}]]]}, {"class_name": "Conv2D", "config": {"name": "conv2d_34", "trainable": true, "dtype": "float32", "filters": 320, "kernel_size": [1, 1], "strides": [1, 1], "padding": "same", "data_format": "channels_last", "dilation_rate": [1, 1], "groups": 1, "activation": "linear", "use_bias": true, "kernel_initializer": {"class_name": "GlorotUniform", "config": {"seed": null}}, "bias_initializer": {"class_name": "Zeros", "config": {}}, "kernel_regularizer": null, "bias_regularizer": null, "activity_regularizer": null, "kernel_constraint": null, "bias_constraint": null}, "name": "conv2d_34", "inbound_nodes": [[["activation_34", 0, 0, {}]]]}, {"class_name": "BatchNormalization", "config": {"name": "batch_normalization_51", "trainable": true, "dtype": "float32", "axis": [3], "momentum": 0.99, "epsilon": 0.001, "center": true, "scale": true, "beta_initializer": {"class_name": "Zeros", "config": {}}, "gamma_initializer": {"class_name": "Ones", "config": {}}, "moving_mean_initializer": {"class_name": "Zeros", "config": {}}, "moving_variance_initializer": {"class_name": "Ones", "config": {}}, "beta_regularizer": null, "gamma_regularizer": null, "beta_constraint": null, "gamma_constraint": null}, "name": "batch_normalization_51", "inbound_nodes": [[["conv2d_34", 0, 0, {}]]]}, {"class_name": "Conv2D", "config": {"name": "conv2d_35", "trainable": true, "dtype": "float32", "filters": 1280, "kernel_size": [1, 1], "strides": [1, 1], "padding": "same", "data_format": "channels_last", "dilation_rate": [1, 1], "groups": 1, "activation": "linear", "use_bias": false, "kernel_initializer": {"class_name": "GlorotUniform", "config": {"seed": null}}, "bias_initializer": {"class_name": "Zeros", "config": {}}, "kernel_regularizer": null, "bias_regularizer": null, "activity_regularizer": null, "kernel_constraint": null, "bias_constraint": null}, "name": "conv2d_35", "inbound_nodes": [[["batch_normalization_51", 0, 0, {}]]]}, {"class_name": "BatchNormalization", "config": {"name": "batch_normalization_52", "trainable": true, "dtype": "float32", "axis": [3], "momentum": 0.99, "epsilon": 0.001, "center": true, "scale": true, "beta_initializer": {"class_name": "Zeros", "config": {}}, "gamma_initializer": {"class_name": "Ones", "config": {}}, "moving_mean_initializer": {"class_name": "Zeros", "config": {}}, "moving_variance_initializer": {"class_name": "Ones", "config": {}}, "beta_regularizer": null, "gamma_regularizer": null, "beta_constraint": null, "gamma_constraint": null}, "name": "batch_normalization_52", "inbound_nodes": [[["conv2d_35", 0, 0, {}]]]}, {"class_name": "Activation", "config": {"name": "activation_35", "trainable": true, "dtype": "float32", "activation": "relu6"}, "name": "activation_35", "inbound_nodes": [[["batch_normalization_52", 0, 0, {}]]]}, {"class_name": "GlobalAveragePooling2D", "config": {"name": "global_average_pooling2d", "trainable": true, "dtype": "float32", "data_format": "channels_last"}, "name": "global_average_pooling2d", "inbound_nodes": [[["activation_35", 0, 0, {}]]]}, {"class_name": "Dense", "config": {"name": "dense", "trainable": true, "dtype": "float32", "units": 1, "activation": "linear", "use_bias": true, "kernel_initializer": {"class_name": "GlorotUniform", "config": {"seed": null}}, "bias_initializer": {"class_name": "Zeros", "config": {}}, "kernel_regularizer": null, "bias_regularizer": null, "activity_regularizer": null, "kernel_constraint": null, "bias_constraint": null}, "name": "dense", "inbound_nodes": [[["global_average_pooling2d", 0, 0, {}]]]}], "input_layers": [["input_1", 0, 0]], "output_layers": [["dense", 0, 0]]}}, "training_config": {"loss": "mean_absolute_error", "metrics": [[{"class_name": "MeanMetricWrapper", "config": {"name": "mae", "dtype": "float32", "fn": "mean_absolute_error"}}, {"class_name": "MeanMetricWrapper", "config": {"name": "mse", "dtype": "float32", "fn": "mean_squared_error"}}]], "weighted_metrics": null, "loss_weights": null, "optimizer_config": {"class_name": "Adam", "config": {"name": "Adam", "learning_rate": 9.999999747378752e-05, "decay": 0.0, "beta_1": 0.8999999761581421, "beta_2": 0.9990000128746033, "epsilon": 1e-07, "amsgrad": false}}}}, "weightsManifest": [{"paths": ["group1-shard1of1.bin"], "weights": [{"name": "batch_normalization/gamma", "shape": [32], "dtype": "float32", "quantization": {"dtype": "uint8", "min": 0.9385895729064941, "scale": 0.0007102218328737745, "original_dtype": "float32"}}, {"name": "batch_normalization/beta", "shape": [32], "dtype": "float32", "quantization": {"dtype": "uint8", "min": -0.1677851158029893, "scale": 0.0011899653603048886, "original_dtype": "float32"}}, {"name": "batch_normalization/moving_mean", "shape": [32], "dtype": "float32", "quantization": {"dtype": "uint8", "min": -0.07954961061477661, "scale": 0.0013258268435796102, "original_dtype": "float32"}}, {"name": "batch_normalization/moving_variance", "shape": [32], "dtype": "float32", "quantization": {"dtype": "uint8", "min": 0.0003125735092908144, "scale": 0.00013062765767030856, "original_dtype": "float32"}}, {"name": "batch_normalization_1/gamma", "shape": [32], "dtype": "float32", "quantization": {"dtype": "uint8", "min": 0.8687363266944885, "scale": 0.0016239182621824975, "original_dtype": "float32"}}, {"name": "batch_normalization_1/beta", "shape": [32], "dtype": "float32", "quantization": {"dtype": "uint8", "min": -0.1368191016655342, "scale": 0.0015909197868085375, "original_dtype": "float32"}}, {"name": "batch_normalization_1/moving_mean", "shape": [32], "dtype": "float32", "quantization": {"dtype": "uint8", "min": -0.4350293484388613, "scale": 0.0035658143314660764, "original_dtype": "float32"}}, {"name": "batch_normalization_1/moving_variance", "shape": [32], "dtype": "float32", "quantization": {"dtype": "uint8", "min": 0.05367473512887955, "scale": 0.003262728423464532, "original_dtype": "float32"}}, {"name": "batch_normalization_10/gamma", "shape": [144], "dtype": "float32", "quantization": {"dtype": "uint8", "min": 0.860715925693512, "scale": 0.0009144490840388279, "original_dtype": "float32"}}, {"name": "batch_normalization_10/beta", "shape": [144], "dtype": "float32", "quantization": {"dtype": "uint8", "min": -0.10952971151062085, "scale": 0.0010236421636506622, "original_dtype": "float32"}}, {"name": "batch_normalization_10/moving_mean", "shape": [144], "dtype": "float32", "quantization": {"dtype": "uint8", "min": -0.0188760848606334, "scale": 0.00016853647196994108, "original_dtype": "float32"}}, {"name": "batch_normalization_10/moving_variance", "shape": [144], "dtype": "float32", "quantization": {"dtype": "uint8", "min": 0.26874446868896484, "scale": 0.00879958844652363, "original_dtype": "float32"}}, {"name": "batch_normalization_11/gamma", "shape": [144], "dtype": "float32", "quantization": {"dtype": "uint8", "min": 0.8602131009101868, "scale": 0.00097730931113748, "original_dtype": "float32"}}, {"name": "batch_normalization_11/beta", "shape": [144], "dtype": "float32", "quantization": {"dtype": "uint8", "min": -0.12420455497853897, "scale": 0.0010350379581544914, "original_dtype": "float32"}}, {"name": "batch_normalization_11/moving_mean", "shape": [144], "dtype": "float32", "quantization": {"dtype": "uint8", "min": -0.161060010860948, "scale": 0.0012485272159763411, "original_dtype": "float32"}}, {"name": "batch_normalization_11/moving_variance", "shape": [144], "dtype": "float32", "quantization": {"dtype": "uint8", "min": 0.0006880097207613289, "scale": 0.00023882296735274733, "original_dtype": "float32"}}, {"name": "batch_normalization_12/gamma", "shape": [32], "dtype": "float32", "quantization": {"dtype": "uint8", "min": 0.8795132040977478, "scale": 0.0007745492692087211, "original_dtype": "float32"}}, {"name": "batch_normalization_12/beta", "shape": [32], "dtype": "float32", "quantization": {"dtype": "uint8", "min": -0.021299870465608203, "scale": 0.00017039896372486563, "original_dtype": "float32"}}, {"name": "batch_normalization_12/moving_mean", "shape": [32], "dtype": "float32", "quantization": {"dtype": "uint8", "min": -0.8655187260870839, "scale": 0.006095202296387915, "original_dtype": "float32"}}, {"name": "batch_normalization_12/moving_variance", "shape": [32], "dtype": "float32", "quantization": {"dtype": "uint8", "min": 0.5695487260818481, "scale": 0.0077187842013789155, "original_dtype": "float32"}}, {"name": "batch_normalization_13/gamma", "shape": [192], "dtype": "float32", "quantization": {"dtype": "uint8", "min": 0.9061563014984131, "scale": 0.0007664666456334732, "original_dtype": "float32"}}, {"name": "batch_normalization_13/beta", "shape": [192], "dtype": "float32", "quantization": {"dtype": "uint8", "min": -0.10793713491921332, "scale": 0.0010087582702730216, "original_dtype": "float32"}}, {"name": "batch_normalization_13/moving_mean", "shape": [192], "dtype": "float32", "quantization": {"dtype": "uint8", "min": -0.014036830952938865, "scale": 0.00012205939959077275, "original_dtype": "float32"}}, {"name": "batch_normalization_13/moving_variance", "shape": [192], "dtype": "float32", "quantization": {"dtype": "uint8", "min": 0.09700797498226166, "scale": 0.006215738373644212, "original_dtype": "float32"}}, {"name": "batch_normalization_14/gamma", "shape": [192], "dtype": "float32", "quantization": {"dtype": "uint8", "min": 0.9059752225875854, "scale": 0.0008353200613283643, "original_dtype": "float32"}}, {"name": "batch_normalization_14/beta", "shape": [192], "dtype": "float32", "quantization": {"dtype": "uint8", "min": -0.10011272515152014, "scale": 0.0007307498186242346, "original_dtype": "float32"}}, {"name": "batch_normalization_14/moving_mean", "shape": [192], "dtype": "float32", "quantization": {"dtype": "uint8", "min": -0.1675617161919089, "scale": 0.0012142153347239775, "original_dtype": "float32"}}, {"name": "batch_normalization_14/moving_variance", "shape": [192], "dtype": "float32", "quantization": {"dtype": "uint8", "min": 0.000997444149106741, "scale": 0.0001054308961565588, "original_dtype": "float32"}}, {"name": "batch_normalization_15/gamma", "shape": [32], "dtype": "float32", "quantization": {"dtype": "uint8", "min": 0.9497214555740356, "scale": 0.00039855078154919197, "original_dtype": "float32"}}, {"name": "batch_normalization_15/beta", "shape": [32], "dtype": "float32", "quantization": {"dtype": "uint8", "min": -0.015654228773771546, "scale": 9.43025829745274e-05, "original_dtype": "float32"}}, {"name": "batch_normalization_15/moving_mean", "shape": [32], "dtype": "float32", "quantization": {"dtype": "uint8", "min": -0.9174099950229421, "scale": 0.008340090863844928, "original_dtype": "float32"}}, {"name": "batch_normalization_15/moving_variance", "shape": [32], "dtype": "float32", "quantization": {"dtype": "uint8", "min": 0.6102715134620667, "scale": 0.005521138275370878, "original_dtype": "float32"}}, {"name": "batch_normalization_16/gamma", "shape": [192], "dtype": "float32", "quantization": {"dtype": "uint8", "min": 0.9190177917480469, "scale": 0.0006538811851950253, "original_dtype": "float32"}}, {"name": "batch_normalization_16/beta", "shape": [192], "dtype": "float32", "quantization": {"dtype": "uint8", "min": -0.09621828987317926, "scale": 0.0007822625192941404, "original_dtype": "float32"}}, {"name": "batch_normalization_16/moving_mean", "shape": [192], "dtype": "float32", "quantization": {"dtype": "uint8", "min": -0.02017283389965693, "scale": 0.0001516754428545634, "original_dtype": "float32"}}, {"name": "batch_normalization_16/moving_variance", "shape": [192], "dtype": "float32", "quantization": {"dtype": "uint8", "min": 0.2681731581687927, "scale": 0.010027683716194303, "original_dtype": "float32"}}, {"name": "batch_normalization_17/gamma", "shape": [192], "dtype": "float32", "quantization": {"dtype": "uint8", "min": 0.9154923558235168, "scale": 0.0008031627711127786, "original_dtype": "float32"}}, {"name": "batch_normalization_17/beta", "shape": [192], "dtype": "float32", "quantization": {"dtype": "uint8", "min": -0.09676196464136536, "scale": 0.0007996856581931021, "original_dtype": "float32"}}, {"name": "batch_normalization_17/moving_mean", "shape": [192], "dtype": "float32", "quantization": {"dtype": "uint8", "min": -0.14776077112730812, "scale": 0.001145432334320218, "original_dtype": "float32"}}, {"name": "batch_normalization_17/moving_variance", "shape": [192], "dtype": "float32", "quantization": {"dtype": "uint8", "min": 0.00103881792165339, "scale": 0.00014816223753287512, "original_dtype": "float32"}}, {"name": "batch_normalization_18/gamma", "shape": [32], "dtype": "float32", "quantization": {"dtype": "uint8", "min": 0.9493341445922852, "scale": 0.0006042971330530503, "original_dtype": "float32"}}, {"name": "batch_normalization_18/beta", "shape": [32], "dtype": "float32", "quantization": {"dtype": "uint8", "min": -0.014466250351831024, "scale": 9.33306474311679e-05, "original_dtype": "float32"}}, {"name": "batch_normalization_18/moving_mean", "shape": [32], "dtype": "float32", "quantization": {"dtype": "uint8", "min": -1.053626728992836, "scale": 0.009578424809025782, "original_dtype": "float32"}}, {"name": "batch_normalization_18/moving_variance", "shape": [32], "dtype": "float32", "quantization": {"dtype": "uint8", "min": 0.5485694408416748, "scale": 0.003859102492238961, "original_dtype": "float32"}}, {"name": "batch_normalization_19/gamma", "shape": [192], "dtype": "float32", "quantization": {"dtype": "uint8", "min": 0.8636776804924011, "scale": 0.0008988817532857259, "original_dtype": "float32"}}, {"name": "batch_normalization_19/beta", "shape": [192], "dtype": "float32", "quantization": {"dtype": "uint8", "min": -0.08729399024855858, "scale": 0.0009188841078795639, "original_dtype": "float32"}}, {"name": "batch_normalization_19/moving_mean", "shape": [192], "dtype": "float32", "quantization": {"dtype": "uint8", "min": -0.02125972280023145, "scale": 0.00018016714237484278, "original_dtype": "float32"}}, {"name": "batch_normalization_19/moving_variance", "shape": [192], "dtype": "float32", "quantization": {"dtype": "uint8", "min": 0.6557935476303101, "scale": 0.01568893965552835, "original_dtype": "float32"}}, {"name": "batch_normalization_2/gamma", "shape": [32], "dtype": "float32", "quantization": {"dtype": "uint8", "min": 0.8869000673294067, "scale": 0.0008877207251156078, "original_dtype": "float32"}}, {"name": "batch_normalization_2/beta", "shape": [32], "dtype": "float32", "quantization": {"dtype": "uint8", "min": -0.12045021255811056, "scale": 0.0017713266552663318, "original_dtype": "float32"}}, {"name": "batch_normalization_2/moving_mean", "shape": [32], "dtype": "float32", "quantization": {"dtype": "uint8", "min": -0.2368187540886449, "scale": 0.001864714599123188, "original_dtype": "float32"}}, {"name": "batch_normalization_2/moving_variance", "shape": [32], "dtype": "float32", "quantization": {"dtype": "uint8", "min": 0.006741279736161232, "scale": 0.00040430180436255885, "original_dtype": "float32"}}, {"name": "batch_normalization_20/gamma", "shape": [192], "dtype": "float32", "quantization": {"dtype": "uint8", "min": 0.8614142537117004, "scale": 0.000957342456368839, "original_dtype": "float32"}}, {"name": "batch_normalization_20/beta", "shape": [192], "dtype": "float32", "quantization": {"dtype": "uint8", "min": -0.10491393547432096, "scale": 0.0009044304782269048, "original_dtype": "float32"}}, {"name": "batch_normalization_20/moving_mean", "shape": [192], "dtype": "float32", "quantization": {"dtype": "uint8", "min": -0.16864682178871304, "scale": 0.0012046201556336646, "original_dtype": "float32"}}, {"name": "batch_normalization_20/moving_variance", "shape": [192], "dtype": "float32", "quantization": {"dtype": "uint8", "min": 0.0008970884955488145, "scale": 0.00016247515644257266, "original_dtype": "float32"}}, {"name": "batch_normalization_21/gamma", "shape": [64], "dtype": "float32", "quantization": {"dtype": "uint8", "min": 0.9034570455551147, "scale": 0.000489503262089748, "original_dtype": "float32"}}, {"name": "batch_normalization_21/beta", "shape": [64], "dtype": "float32", "quantization": {"dtype": "uint8", "min": -0.010560100828753968, "scale": 9.345221972348643e-05, "original_dtype": "float32"}}, {"name": "batch_normalization_21/moving_mean", "shape": [64], "dtype": "float32", "quantization": {"dtype": "uint8", "min": -1.5721539048587574, "scale": 0.011229670748991125, "original_dtype": "float32"}}, {"name": "batch_normalization_21/moving_variance", "shape": [64], "dtype": "float32", "quantization": {"dtype": "uint8", "min": 0.6636109948158264, "scale": 0.005308706386416566, "original_dtype": "float32"}}, {"name": "batch_normalization_22/gamma", "shape": [384], "dtype": "float32", "quantization": {"dtype": "uint8", "min": 0.8652487397193909, "scale": 0.0008848043049083037, "original_dtype": "float32"}}, {"name": "batch_normalization_22/beta", "shape": [384], "dtype": "float32", "quantization": {"dtype": "uint8", "min": -0.10434600184945499, "scale": 0.0008552950971266802, "original_dtype": "float32"}}, {"name": "batch_normalization_22/moving_mean", "shape": [384], "dtype": "float32", "quantization": {"dtype": "uint8", "min": -0.008626448894467424, "scale": 6.389962144049943e-05, "original_dtype": "float32"}}, {"name": "batch_normalization_22/moving_variance", "shape": [384], "dtype": "float32", "quantization": {"dtype": "uint8", "min": 0.18021883070468903, "scale": 0.006848613362686307, "original_dtype": "float32"}}, {"name": "batch_normalization_23/gamma", "shape": [384], "dtype": "float32", "quantization": {"dtype": "uint8", "min": 0.8599535822868347, "scale": 0.0009613633155822754, "original_dtype": "float32"}}, {"name": "batch_normalization_23/beta", "shape": [384], "dtype": "float32", "quantization": {"dtype": "uint8", "min": -0.11703306792997847, "scale": 0.0008241765347181582, "original_dtype": "float32"}}, {"name": "batch_normalization_23/moving_mean", "shape": [384], "dtype": "float32", "quantization": {"dtype": "uint8", "min": -0.10281915173811072, "scale": 0.0008225532139048857, "original_dtype": "float32"}}, {"name": "batch_normalization_23/moving_variance", "shape": [384], "dtype": "float32", "quantization": {"dtype": "uint8", "min": 0.000384291895898059, "scale": 5.7635601386245266e-05, "original_dtype": "float32"}}, {"name": "batch_normalization_24/gamma", "shape": [64], "dtype": "float32", "quantization": {"dtype": "uint8", "min": 0.9210916757583618, "scale": 0.0005350220437143363, "original_dtype": "float32"}}, {"name": "batch_normalization_24/beta", "shape": [64], "dtype": "float32", "quantization": {"dtype": "uint8", "min": -0.005708654255916675, "scale": 4.56692340473334e-05, "original_dtype": "float32"}}, {"name": "batch_normalization_24/moving_mean", "shape": [64], "dtype": "float32", "quantization": {"dtype": "uint8", "min": -1.2914804009830252, "scale": 0.011038294025495941, "original_dtype": "float32"}}, {"name": "batch_normalization_24/moving_variance", "shape": [64], "dtype": "float32", "quantization": {"dtype": "uint8", "min": 0.8105413913726807, "scale": 0.0051140177483652155, "original_dtype": "float32"}}, {"name": "batch_normalization_25/gamma", "shape": [384], "dtype": "float32", "quantization": {"dtype": "uint8", "min": 0.895435631275177, "scale": 0.0009475471926670448, "original_dtype": "float32"}}, {"name": "batch_normalization_25/beta", "shape": [384], "dtype": "float32", "quantization": {"dtype": "uint8", "min": -0.1368403715245864, "scale": 0.0010690654025358312, "original_dtype": "float32"}}, {"name": "batch_normalization_25/moving_mean", "shape": [384], "dtype": "float32", "quantization": {"dtype": "uint8", "min": -0.010331618413329125, "scale": 8.682032280108508e-05, "original_dtype": "float32"}}, {"name": "batch_normalization_25/moving_variance", "shape": [384], "dtype": "float32", "quantization": {"dtype": "uint8", "min": 0.3446427881717682, "scale": 0.008605291679793714, "original_dtype": "float32"}}, {"name": "batch_normalization_26/gamma", "shape": [384], "dtype": "float32", "quantization": {"dtype": "uint8", "min": 0.8933859467506409, "scale": 0.0008684436480204265, "original_dtype": "float32"}}, {"name": "batch_normalization_26/beta", "shape": [384], "dtype": "float32", "quantization": {"dtype": "uint8", "min": -0.12922400002386056, "scale": 0.0008912000001645555, "original_dtype": "float32"}}, {"name": "batch_normalization_26/moving_mean", "shape": [384], "dtype": "float32", "quantization": {"dtype": "uint8", "min": -0.12258917236444997, "scale": 0.0009217231004845862, "original_dtype": "float32"}}, {"name": "batch_normalization_26/moving_variance", "shape": [384], "dtype": "float32", "quantization": {"dtype": "uint8", "min": 0.0006230715662240982, "scale": 8.088148692074943e-05, "original_dtype": "float32"}}, {"name": "batch_normalization_27/gamma", "shape": [64], "dtype": "float32", "quantization": {"dtype": "uint8", "min": 0.9628424644470215, "scale": 0.0005515065847658643, "original_dtype": "float32"}}, {"name": "batch_normalization_27/beta", "shape": [64], "dtype": "float32", "quantization": {"dtype": "uint8", "min": -0.0053327425492598725, "scale": 3.782086914368704e-05, "original_dtype": "float32"}}, {"name": "batch_normalization_27/moving_mean", "shape": [64], "dtype": "float32", "quantization": {"dtype": "uint8", "min": -1.563332602557014, "scale": 0.011328497119978362, "original_dtype": "float32"}}, {"name": "batch_normalization_27/moving_variance", "shape": [64], "dtype": "float32", "quantization": {"dtype": "uint8", "min": 0.5551180243492126, "scale": 0.0032128032516030706, "original_dtype": "float32"}}, {"name": "batch_normalization_28/gamma", "shape": [384], "dtype": "float32", "quantization": {"dtype": "uint8", "min": 0.910164475440979, "scale": 0.0008189192005232269, "original_dtype": "float32"}}, {"name": "batch_normalization_28/beta", "shape": [384], "dtype": "float32", "quantization": {"dtype": "uint8", "min": -0.11231156219454373, "scale": 0.0008138518999604618, "original_dtype": "float32"}}, {"name": "batch_normalization_28/moving_mean", "shape": [384], "dtype": "float32", "quantization": {"dtype": "uint8", "min": -0.017311604145695183, "scale": 0.00012823410478292728, "original_dtype": "float32"}}, {"name": "batch_normalization_28/moving_variance", "shape": [384], "dtype": "float32", "quantization": {"dtype": "uint8", "min": 0.6624442934989929, "scale": 0.009449986149283017, "original_dtype": "float32"}}, {"name": "batch_normalization_29/gamma", "shape": [384], "dtype": "float32", "quantization": {"dtype": "uint8", "min": 0.909457802772522, "scale": 0.0008671442667643229, "original_dtype": "float32"}}, {"name": "batch_normalization_29/beta", "shape": [384], "dtype": "float32", "quantization": {"dtype": "uint8", "min": -0.0932079295317332, "scale": 0.0007639994223912557, "original_dtype": "float32"}}, {"name": "batch_normalization_29/moving_mean", "shape": [384], "dtype": "float32", "quantization": {"dtype": "uint8", "min": -0.0997746113468619, "scale": 0.0007558682677792568, "original_dtype": "float32"}}, {"name": "batch_normalization_29/moving_variance", "shape": [384], "dtype": "float32", "quantization": {"dtype": "uint8", "min": 0.0006971557158976793, "scale": 4.538240221639474e-05, "original_dtype": "float32"}}, {"name": "batch_normalization_3/gamma", "shape": [16], "dtype": "float32", "quantization": {"dtype": "uint8", "min": 0.9149367809295654, "scale": 0.0006869409598556219, "original_dtype": "float32"}}, {"name": "batch_normalization_3/beta", "shape": [16], "dtype": "float32", "quantization": {"dtype": "uint8", "min": -0.010259166732430457, "scale": 0.00020116013200844034, "original_dtype": "float32"}}, {"name": "batch_normalization_3/moving_mean", "shape": [16], "dtype": "float32", "quantization": {"dtype": "uint8", "min": -0.49882051944732664, "scale": 0.004890397249483595, "original_dtype": "float32"}}, {"name": "batch_normalization_3/moving_variance", "shape": [16], "dtype": "float32", "quantization": {"dtype": "uint8", "min": 0.3843691647052765, "scale": 0.0027634741044511983, "original_dtype": "float32"}}, {"name": "batch_normalization_30/gamma", "shape": [64], "dtype": "float32", "quantization": {"dtype": "uint8", "min": 0.9883432984352112, "scale": 0.0006621335067001044, "original_dtype": "float32"}}, {"name": "batch_normalization_30/beta", "shape": [64], "dtype": "float32", "quantization": {"dtype": "uint8", "min": -0.004480185629982574, "scale": 3.343422111927294e-05, "original_dtype": "float32"}}, {"name": "batch_normalization_30/moving_mean", "shape": [64], "dtype": "float32", "quantization": {"dtype": "uint8", "min": -1.744024243074305, "scale": 0.011179642583809647, "original_dtype": "float32"}}, {"name": "batch_normalization_30/moving_variance", "shape": [64], "dtype": "float32", "quantization": {"dtype": "uint8", "min": 0.4864237904548645, "scale": 0.0024614682384565766, "original_dtype": "float32"}}, {"name": "batch_normalization_31/gamma", "shape": [384], "dtype": "float32", "quantization": {"dtype": "uint8", "min": 0.913253903388977, "scale": 0.0007615351209453508, "original_dtype": "float32"}}, {"name": "batch_normalization_31/beta", "shape": [384], "dtype": "float32", "quantization": {"dtype": "uint8", "min": -0.138912464269236, "scale": 0.0008628103370760001, "original_dtype": "float32"}}, {"name": "batch_normalization_31/moving_mean", "shape": [384], "dtype": "float32", "quantization": {"dtype": "uint8", "min": -0.01586448445039637, "scale": 0.00012394128476872165, "original_dtype": "float32"}}, {"name": "batch_normalization_31/moving_variance", "shape": [384], "dtype": "float32", "quantization": {"dtype": "uint8", "min": 1.1550679206848145, "scale": 0.016255889219396254, "original_dtype": "float32"}}, {"name": "batch_normalization_32/gamma", "shape": [384], "dtype": "float32", "quantization": {"dtype": "uint8", "min": 0.9059028625488281, "scale": 0.000734557824976304, "original_dtype": "float32"}}, {"name": "batch_normalization_32/beta", "shape": [384], "dtype": "float32", "quantization": {"dtype": "uint8", "min": -0.10338608090784035, "scale": 0.0008544304207259533, "original_dtype": "float32"}}, {"name": "batch_normalization_32/moving_mean", "shape": [384], "dtype": "float32", "quantization": {"dtype": "uint8", "min": -0.12331505613584146, "scale": 0.0008276178264150433, "original_dtype": "float32"}}, {"name": "batch_normalization_32/moving_variance", "shape": [384], "dtype": "float32", "quantization": {"dtype": "uint8", "min": 0.0010319455759599805, "scale": 5.023706950904692e-05, "original_dtype": "float32"}}, {"name": "batch_normalization_33/gamma", "shape": [96], "dtype": "float32", "quantization": {"dtype": "uint8", "min": 0.8988609313964844, "scale": 0.0004735764335183536, "original_dtype": "float32"}}, {"name": "batch_normalization_33/beta", "shape": [96], "dtype": "float32", "quantization": {"dtype": "uint8", "min": -0.0072798339704818575, "scale": 6.933175209982722e-05, "original_dtype": "float32"}}, {"name": "batch_normalization_33/moving_mean", "shape": [96], "dtype": "float32", "quantization": {"dtype": "uint8", "min": -1.533296324225033, "scale": 0.011110842929166906, "original_dtype": "float32"}}, {"name": "batch_normalization_33/moving_variance", "shape": [96], "dtype": "float32", "quantization": {"dtype": "uint8", "min": 0.6509542465209961, "scale": 0.005507546780156154, "original_dtype": "float32"}}, {"name": "batch_normalization_34/gamma", "shape": [576], "dtype": "float32", "quantization": {"dtype": "uint8", "min": 0.8723058104515076, "scale": 0.0010866373193030264, "original_dtype": "float32"}}, {"name": "batch_normalization_34/beta", "shape": [576], "dtype": "float32", "quantization": {"dtype": "uint8", "min": -0.15298380057017008, "scale": 0.0011248808865453683, "original_dtype": "float32"}}, {"name": "batch_normalization_34/moving_mean", "shape": [576], "dtype": "float32", "quantization": {"dtype": "uint8", "min": -0.006078708432980028, "scale": 4.8629667463840225e-05, "original_dtype": "float32"}}, {"name": "batch_normalization_34/moving_variance", "shape": [576], "dtype": "float32", "quantization": {"dtype": "uint8", "min": 0.2553531527519226, "scale": 0.0037995055610058354, "original_dtype": "float32"}}, {"name": "batch_normalization_35/gamma", "shape": [576], "dtype": "float32", "quantization": {"dtype": "uint8", "min": 0.872315526008606, "scale": 0.0008975047691195619, "original_dtype": "float32"}}, {"name": "batch_normalization_35/beta", "shape": [576], "dtype": "float32", "quantization": {"dtype": "uint8", "min": -0.11134449541568757, "scale": 0.0007277418001025331, "original_dtype": "float32"}}, {"name": "batch_normalization_35/moving_mean", "shape": [576], "dtype": "float32", "quantization": {"dtype": "uint8", "min": -0.1326252488528981, "scale": 0.0008501618516211417, "original_dtype": "float32"}}, {"name": "batch_normalization_35/moving_variance", "shape": [576], "dtype": "float32", "quantization": {"dtype": "uint8", "min": 0.0002015085337916389, "scale": 5.5213133272641866e-05, "original_dtype": "float32"}}, {"name": "batch_normalization_36/gamma", "shape": [96], "dtype": "float32", "quantization": {"dtype": "uint8", "min": 0.9410464763641357, "scale": 0.0006025024488860485, "original_dtype": "float32"}}, {"name": "batch_normalization_36/beta", "shape": [96], "dtype": "float32", "quantization": {"dtype": "uint8", "min": -0.004007704419029109, "scale": 3.676793044980834e-05, "original_dtype": "float32"}}, {"name": "batch_normalization_36/moving_mean", "shape": [96], "dtype": "float32", "quantization": {"dtype": "uint8", "min": -2.357596991108913, "scale": 0.015822798598046396, "original_dtype": "float32"}}, {"name": "batch_normalization_36/moving_variance", "shape": [96], "dtype": "float32", "quantization": {"dtype": "uint8", "min": 0.6366763114929199, "scale": 0.006012847376804725, "original_dtype": "float32"}}, {"name": "batch_normalization_37/gamma", "shape": [576], "dtype": "float32", "quantization": {"dtype": "uint8", "min": 0.8819846510887146, "scale": 0.0010171252138474409, "original_dtype": "float32"}}, {"name": "batch_normalization_37/beta", "shape": [576], "dtype": "float32", "quantization": {"dtype": "uint8", "min": -0.15137921373049418, "scale": 0.0009230439861615499, "original_dtype": "float32"}}, {"name": "batch_normalization_37/moving_mean", "shape": [576], "dtype": "float32", "quantization": {"dtype": "uint8", "min": -0.007908884267888817, "scale": 6.536267989990758e-05, "original_dtype": "float32"}}, {"name": "batch_normalization_37/moving_variance", "shape": [576], "dtype": "float32", "quantization": {"dtype": "uint8", "min": 0.5288673639297485, "scale": 0.01273637145173316, "original_dtype": "float32"}}, {"name": "batch_normalization_38/gamma", "shape": [576], "dtype": "float32", "quantization": {"dtype": "uint8", "min": 0.8959226012229919, "scale": 0.0007717593043458227, "original_dtype": "float32"}}, {"name": "batch_normalization_38/beta", "shape": [576], "dtype": "float32", "quantization": {"dtype": "uint8", "min": -0.10262371687328115, "scale": 0.0006578443389312894, "original_dtype": "float32"}}, {"name": "batch_normalization_38/moving_mean", "shape": [576], "dtype": "float32", "quantization": {"dtype": "uint8", "min": -0.18219632804393768, "scale": 0.0011177688837051391, "original_dtype": "float32"}}, {"name": "batch_normalization_38/moving_variance", "shape": [576], "dtype": "float32", "quantization": {"dtype": "uint8", "min": 0.0004686879983637482, "scale": 9.850509791160185e-05, "original_dtype": "float32"}}, {"name": "batch_normalization_39/gamma", "shape": [96], "dtype": "float32", "quantization": {"dtype": "uint8", "min": 0.9631342887878418, "scale": 0.0008341527452655867, "original_dtype": "float32"}}, {"name": "batch_normalization_39/beta", "shape": [96], "dtype": "float32", "quantization": {"dtype": "uint8", "min": -0.00338733047246933, "scale": 3.320912227911108e-05, "original_dtype": "float32"}}, {"name": "batch_normalization_39/moving_mean", "shape": [96], "dtype": "float32", "quantization": {"dtype": "uint8", "min": -1.8099937452989465, "scale": 0.013211633177364573, "original_dtype": "float32"}}, {"name": "batch_normalization_39/moving_variance", "shape": [96], "dtype": "float32", "quantization": {"dtype": "uint8", "min": 0.4799489378929138, "scale": 0.004081273780149572, "original_dtype": "float32"}}, {"name": "batch_normalization_4/gamma", "shape": [96], "dtype": "float32", "quantization": {"dtype": "uint8", "min": 0.8062904477119446, "scale": 0.001457680206672818, "original_dtype": "float32"}}, {"name": "batch_normalization_4/beta", "shape": [96], "dtype": "float32", "quantization": {"dtype": "uint8", "min": -0.0631200134754181, "scale": 0.0012376473230474136, "original_dtype": "float32"}}, {"name": "batch_normalization_4/moving_mean", "shape": [96], "dtype": "float32", "quantization": {"dtype": "uint8", "min": -0.017212461022769705, "scale": 0.00013447235174038832, "original_dtype": "float32"}}, {"name": "batch_normalization_4/moving_variance", "shape": [96], "dtype": "float32", "quantization": {"dtype": "uint8", "min": 0.0855109766125679, "scale": 0.00287064287592383, "original_dtype": "float32"}}, {"name": "batch_normalization_40/gamma", "shape": [576], "dtype": "float32", "quantization": {"dtype": "uint8", "min": 0.8593794107437134, "scale": 0.0009297688802083333, "original_dtype": "float32"}}, {"name": "batch_normalization_40/beta", "shape": [576], "dtype": "float32", "quantization": {"dtype": "uint8", "min": -0.13424063649247675, "scale": 0.0009943750851294573, "original_dtype": "float32"}}, {"name": "batch_normalization_40/moving_mean", "shape": [576], "dtype": "float32", "quantization": {"dtype": "uint8", "min": -0.011334368466016126, "scale": 8.273261654026369e-05, "original_dtype": "float32"}}, {"name": "batch_normalization_40/moving_variance", "shape": [576], "dtype": "float32", "quantization": {"dtype": "uint8", "min": 1.093737244606018, "scale": 0.02690145969390869, "original_dtype": "float32"}}, {"name": "batch_normalization_41/gamma", "shape": [576], "dtype": "float32", "quantization": {"dtype": "uint8", "min": 0.850437343120575, "scale": 0.000985400583229813, "original_dtype": "float32"}}, {"name": "batch_normalization_41/beta", "shape": [576], "dtype": "float32", "quantization": {"dtype": "uint8", "min": -0.1533861100381496, "scale": 0.0008474370720339756, "original_dtype": "float32"}}, {"name": "batch_normalization_41/moving_mean", "shape": [576], "dtype": "float32", "quantization": {"dtype": "uint8", "min": -0.15359292264078178, "scale": 0.0010520063194574094, "original_dtype": "float32"}}, {"name": "batch_normalization_41/moving_variance", "shape": [576], "dtype": "float32", "quantization": {"dtype": "uint8", "min": 2.733341716520954e-05, "scale": 6.022916765918946e-05, "original_dtype": "float32"}}, {"name": "batch_normalization_42/gamma", "shape": [160], "dtype": "float32", "quantization": {"dtype": "uint8", "min": 0.8411954641342163, "scale": 0.0007255418627869849, "original_dtype": "float32"}}, {"name": "batch_normalization_42/beta", "shape": [160], "dtype": "float32", "quantization": {"dtype": "uint8", "min": -0.006538666242404896, "scale": 5.0687335212441055e-05, "original_dtype": "float32"}}, {"name": "batch_normalization_42/moving_mean", "shape": [160], "dtype": "float32", "quantization": {"dtype": "uint8", "min": -2.5003265829647288, "scale": 0.01811830857220818, "original_dtype": "float32"}}, {"name": "batch_normalization_42/moving_variance", "shape": [160], "dtype": "float32", "quantization": {"dtype": "uint8", "min": 0.7523094415664673, "scale": 0.016226577291301652, "original_dtype": "float32"}}, {"name": "batch_normalization_43/gamma", "shape": [960], "dtype": "float32", "quantization": {"dtype": "uint8", "min": 0.8479723930358887, "scale": 0.0009831966138353534, "original_dtype": "float32"}}, {"name": "batch_normalization_43/beta", "shape": [960], "dtype": "float32", "quantization": {"dtype": "uint8", "min": -0.1931873559951782, "scale": 0.0012626624574848249, "original_dtype": "float32"}}, {"name": "batch_normalization_43/moving_mean", "shape": [960], "dtype": "float32", "quantization": {"dtype": "uint8", "min": -0.005205456664164861, "scale": 3.8275416648271035e-05, "original_dtype": "float32"}}, {"name": "batch_normalization_43/moving_variance", "shape": [960], "dtype": "float32", "quantization": {"dtype": "uint8", "min": 0.23457525670528412, "scale": 0.02729050137248694, "original_dtype": "float32"}}, {"name": "batch_normalization_44/gamma", "shape": [960], "dtype": "float32", "quantization": {"dtype": "uint8", "min": 0.8392086029052734, "scale": 0.001027978167814367, "original_dtype": "float32"}}, {"name": "batch_normalization_44/beta", "shape": [960], "dtype": "float32", "quantization": {"dtype": "uint8", "min": -0.1375285639482386, "scale": 0.0008186224044538011, "original_dtype": "float32"}}, {"name": "batch_normalization_44/moving_mean", "shape": [960], "dtype": "float32", "quantization": {"dtype": "uint8", "min": -0.08298184398342581, "scale": 0.0006746491380766326, "original_dtype": "float32"}}, {"name": "batch_normalization_44/moving_variance", "shape": [960], "dtype": "float32", "quantization": {"dtype": "uint8", "min": 5.521741996972196e-08, "scale": 9.180249942410652e-05, "original_dtype": "float32"}}, {"name": "batch_normalization_45/gamma", "shape": [160], "dtype": "float32", "quantization": {"dtype": "uint8", "min": 0.9137166142463684, "scale": 0.000685279275856766, "original_dtype": "float32"}}, {"name": "batch_normalization_45/beta", "shape": [160], "dtype": "float32", "quantization": {"dtype": "uint8", "min": -0.0036871062491235194, "scale": 2.814584922995053e-05, "original_dtype": "float32"}}, {"name": "batch_normalization_45/moving_mean", "shape": [160], "dtype": "float32", "quantization": {"dtype": "uint8", "min": -1.93830853396771, "scale": 0.017153172866970885, "original_dtype": "float32"}}, {"name": "batch_normalization_45/moving_variance", "shape": [160], "dtype": "float32", "quantization": {"dtype": "uint8", "min": 0.41984736919403076, "scale": 0.009156489372253418, "original_dtype": "float32"}}, {"name": "batch_normalization_46/gamma", "shape": [960], "dtype": "float32", "quantization": {"dtype": "uint8", "min": 0.8495439887046814, "scale": 0.0011656852329478544, "original_dtype": "float32"}}, {"name": "batch_normalization_46/beta", "shape": [960], "dtype": "float32", "quantization": {"dtype": "uint8", "min": -0.19732067877171086, "scale": 0.0012813031089072135, "original_dtype": "float32"}}, {"name": "batch_normalization_46/moving_mean", "shape": [960], "dtype": "float32", "quantization": {"dtype": "uint8", "min": -0.005540106589814612, "scale": 4.902749194526205e-05, "original_dtype": "float32"}}, {"name": "batch_normalization_46/moving_variance", "shape": [960], "dtype": "float32", "quantization": {"dtype": "uint8", "min": 0.2896397113800049, "scale": 0.03410262594036027, "original_dtype": "float32"}}, {"name": "batch_normalization_47/gamma", "shape": [960], "dtype": "float32", "quantization": {"dtype": "uint8", "min": 0.8449714183807373, "scale": 0.0009920265160354913, "original_dtype": "float32"}}, {"name": "batch_normalization_47/beta", "shape": [960], "dtype": "float32", "quantization": {"dtype": "uint8", "min": -0.19877113004525504, "scale": 0.0010629472194933424, "original_dtype": "float32"}}, {"name": "batch_normalization_47/moving_mean", "shape": [960], "dtype": "float32", "quantization": {"dtype": "uint8", "min": -0.10279930120005326, "scale": 0.0007290730581564061, "original_dtype": "float32"}}, {"name": "batch_normalization_47/moving_variance", "shape": [960], "dtype": "float32", "quantization": {"dtype": "uint8", "min": 1.1859075499387473e-08, "scale": 8.815953276618527e-05, "original_dtype": "float32"}}, {"name": "batch_normalization_48/gamma", "shape": [160], "dtype": "float32", "quantization": {"dtype": "uint8", "min": 0.9616020917892456, "scale": 0.0008595532062006931, "original_dtype": "float32"}}, {"name": "batch_normalization_48/beta", "shape": [160], "dtype": "float32", "quantization": {"dtype": "uint8", "min": -0.003194434513502261, "scale": 2.1584016983123385e-05, "original_dtype": "float32"}}, {"name": "batch_normalization_48/moving_mean", "shape": [160], "dtype": "float32", "quantization": {"dtype": "uint8", "min": -2.3021259868846218, "scale": 0.016212154837215647, "original_dtype": "float32"}}, {"name": "batch_normalization_48/moving_variance", "shape": [160], "dtype": "float32", "quantization": {"dtype": "uint8", "min": 0.3343963325023651, "scale": 0.00813579758008321, "original_dtype": "float32"}}, {"name": "batch_normalization_49/gamma", "shape": [960], "dtype": "float32", "quantization": {"dtype": "uint8", "min": 0.8310521245002747, "scale": 0.0010574072015051748, "original_dtype": "float32"}}, {"name": "batch_normalization_49/beta", "shape": [960], "dtype": "float32", "quantization": {"dtype": "uint8", "min": -0.20364664395650228, "scale": 0.0014974017937978109, "original_dtype": "float32"}}, {"name": "batch_normalization_49/moving_mean", "shape": [960], "dtype": "float32", "quantization": {"dtype": "uint8", "min": -0.006477773014236899, "scale": 5.3535314167247096e-05, "original_dtype": "float32"}}, {"name": "batch_normalization_49/moving_variance", "shape": [960], "dtype": "float32", "quantization": {"dtype": "uint8", "min": 0.36214160919189453, "scale": 0.06643476673201018, "original_dtype": "float32"}}, {"name": "batch_normalization_5/gamma", "shape": [96], "dtype": "float32", "quantization": {"dtype": "uint8", "min": 0.8684298396110535, "scale": 0.001073173681894938, "original_dtype": "float32"}}, {"name": "batch_normalization_5/beta", "shape": [96], "dtype": "float32", "quantization": {"dtype": "uint8", "min": -0.11099960067692924, "scale": 0.0011935440933003145, "original_dtype": "float32"}}, {"name": "batch_normalization_5/moving_mean", "shape": [96], "dtype": "float32", "quantization": {"dtype": "uint8", "min": -0.18004005200722636, "scale": 0.0012768798014696906, "original_dtype": "float32"}}, {"name": "batch_normalization_5/moving_variance", "shape": [96], "dtype": "float32", "quantization": {"dtype": "uint8", "min": 0.001406269264407456, "scale": 0.0003329785645702014, "original_dtype": "float32"}}, {"name": "batch_normalization_50/gamma", "shape": [960], "dtype": "float32", "quantization": {"dtype": "uint8", "min": 0.8183675408363342, "scale": 0.0010813579839818617, "original_dtype": "float32"}}, {"name": "batch_normalization_50/beta", "shape": [960], "dtype": "float32", "quantization": {"dtype": "uint8", "min": -0.23172025107869915, "scale": 0.0011822461789729548, "original_dtype": "float32"}}, {"name": "batch_normalization_50/moving_mean", "shape": [960], "dtype": "float32", "quantization": {"dtype": "uint8", "min": -0.11936784436305364, "scale": 0.0007323180635770162, "original_dtype": "float32"}}, {"name": "batch_normalization_50/moving_variance", "shape": [960], "dtype": "float32", "quantization": {"dtype": "uint8", "min": 5.5257656228491214e-09, "scale": 6.538189825895641e-05, "original_dtype": "float32"}}, {"name": "batch_normalization_51/gamma", "shape": [320], "dtype": "float32", "quantization": {"dtype": "uint8", "min": 0.9253116846084595, "scale": 0.0008041152767106598, "original_dtype": "float32"}}, {"name": "batch_normalization_51/beta", "shape": [320], "dtype": "float32", "quantization": {"dtype": "uint8", "min": -0.004989307636723799, "scale": 3.7797785126695446e-05, "original_dtype": "float32"}}, {"name": "batch_normalization_51/moving_mean", "shape": [320], "dtype": "float32", "quantization": {"dtype": "uint8", "min": -2.107944774627686, "scale": 0.01672972043355306, "original_dtype": "float32"}}, {"name": "batch_normalization_51/moving_variance", "shape": [320], "dtype": "float32", "quantization": {"dtype": "uint8", "min": 0.48218080401420593, "scale": 0.0238720810880848, "original_dtype": "float32"}}, {"name": "batch_normalization_52/gamma", "shape": [1280], "dtype": "float32", "quantization": {"dtype": "uint8", "min": 0.947289228439331, "scale": 0.0009862474366730334, "original_dtype": "float32"}}, {"name": "batch_normalization_52/beta", "shape": [1280], "dtype": "float32", "quantization": {"dtype": "uint8", "min": -0.153318410059985, "scale": 0.0014328823370092056, "original_dtype": "float32"}}, {"name": "batch_normalization_52/moving_mean", "shape": [1280], "dtype": "float32", "quantization": {"dtype": "uint8", "min": -0.002979560037527014, "scale": 2.613649155725451e-05, "original_dtype": "float32"}}, {"name": "batch_normalization_52/moving_variance", "shape": [1280], "dtype": "float32", "quantization": {"dtype": "uint8", "min": 6.9613871574401855, "scale": 0.2355717995587517, "original_dtype": "float32"}}, {"name": "batch_normalization_6/gamma", "shape": [24], "dtype": "float32", "quantization": {"dtype": "uint8", "min": 0.9278210401535034, "scale": 0.0005613069908291686, "original_dtype": "float32"}}, {"name": "batch_normalization_6/beta", "shape": [24], "dtype": "float32", "quantization": {"dtype": "uint8", "min": -0.02542790055421053, "scale": 0.00018293453636122686, "original_dtype": "float32"}}, {"name": "batch_normalization_6/moving_mean", "shape": [24], "dtype": "float32", "quantization": {"dtype": "uint8", "min": -1.2457820291612662, "scale": 0.007737776578641406, "original_dtype": "float32"}}, {"name": "batch_normalization_6/moving_variance", "shape": [24], "dtype": "float32", "quantization": {"dtype": "uint8", "min": 0.5959154367446899, "scale": 0.004918565937117034, "original_dtype": "float32"}}, {"name": "batch_normalization_7/gamma", "shape": [144], "dtype": "float32", "quantization": {"dtype": "uint8", "min": 0.8418448567390442, "scale": 0.0011479506305619783, "original_dtype": "float32"}}, {"name": "batch_normalization_7/beta", "shape": [144], "dtype": "float32", "quantization": {"dtype": "uint8", "min": -0.08443734026422688, "scale": 0.0011110176350556168, "original_dtype": "float32"}}, {"name": "batch_normalization_7/moving_mean", "shape": [144], "dtype": "float32", "quantization": {"dtype": "uint8", "min": -0.021163670017438775, "scale": 0.00016033083346544527, "original_dtype": "float32"}}, {"name": "batch_normalization_7/moving_variance", "shape": [144], "dtype": "float32", "quantization": {"dtype": "uint8", "min": 0.08133947104215622, "scale": 0.0028051329886212067, "original_dtype": "float32"}}, {"name": "batch_normalization_8/gamma", "shape": [144], "dtype": "float32", "quantization": {"dtype": "uint8", "min": 0.8789770603179932, "scale": 0.001144583552491431, "original_dtype": "float32"}}, {"name": "batch_normalization_8/beta", "shape": [144], "dtype": "float32", "quantization": {"dtype": "uint8", "min": -0.12246864151720907, "scale": 0.0008624552219521765, "original_dtype": "float32"}}, {"name": "batch_normalization_8/moving_mean", "shape": [144], "dtype": "float32", "quantization": {"dtype": "uint8", "min": -0.15234035200932447, "scale": 0.001065317146918353, "original_dtype": "float32"}}, {"name": "batch_normalization_8/moving_variance", "shape": [144], "dtype": "float32", "quantization": {"dtype": "uint8", "min": 0.0010820104507729411, "scale": 0.00016680495749574667, "original_dtype": "float32"}}, {"name": "batch_normalization_9/gamma", "shape": [24], "dtype": "float32", "quantization": {"dtype": "uint8", "min": 0.8921323418617249, "scale": 0.0009954492251078287, "original_dtype": "float32"}}, {"name": "batch_normalization_9/beta", "shape": [24], "dtype": "float32", "quantization": {"dtype": "uint8", "min": -0.016850188812788793, "scale": 0.00013588861945797414, "original_dtype": "float32"}}, {"name": "batch_normalization_9/moving_mean", "shape": [24], "dtype": "float32", "quantization": {"dtype": "uint8", "min": -1.1476667689342126, "scale": 0.009036746212080414, "original_dtype": "float32"}}, {"name": "batch_normalization_9/moving_variance", "shape": [24], "dtype": "float32", "quantization": {"dtype": "uint8", "min": 0.52339768409729, "scale": 0.004100509718352673, "original_dtype": "float32"}}, {"name": "conv2d/kernel", "shape": [3, 3, 1, 32], "dtype": "float32", "quantization": {"dtype": "uint8", "min": -0.20180024206638336, "scale": 0.0019219070672988892, "original_dtype": "float32"}}, {"name": "conv2d_1/kernel", "shape": [1, 1, 32, 32], "dtype": "float32", "quantization": {"dtype": "uint8", "min": -0.3434422640239491, "scale": 0.0030126514388065712, "original_dtype": "float32"}}, {"name": "conv2d_10/kernel", "shape": [1, 1, 192, 32], "dtype": "float32", "quantization": {"dtype": "uint8", "min": -0.26509522550246295, "scale": 0.0021039303611306583, "original_dtype": "float32"}}, {"name": "conv2d_10/bias", "shape": [32], "dtype": "float32", "quantization": {"dtype": "uint8", "min": -0.009703452698886395, "scale": 8.154161931837306e-05, "original_dtype": "float32"}}, {"name": "conv2d_11/kernel", "shape": [1, 1, 32, 192], "dtype": "float32", "quantization": {"dtype": "uint8", "min": -0.2550060496610754, "scale": 0.0019922347629771514, "original_dtype": "float32"}}, {"name": "conv2d_12/kernel", "shape": [1, 1, 192, 32], "dtype": "float32", "quantization": {"dtype": "uint8", "min": -0.26651192833395565, "scale": 0.002258575663847082, "original_dtype": "float32"}}, {"name": "conv2d_12/bias", "shape": [32], "dtype": "float32", "quantization": {"dtype": "uint8", "min": -0.009615687529246011, "scale": 7.070358477386773e-05, "original_dtype": "float32"}}, {"name": "conv2d_13/kernel", "shape": [1, 1, 32, 192], "dtype": "float32", "quantization": {"dtype": "uint8", "min": -0.25344642470864687, "scale": 0.002112053539238724, "original_dtype": "float32"}}, {"name": "conv2d_14/kernel", "shape": [1, 1, 192, 64], "dtype": "float32", "quantization": {"dtype": "uint8", "min": -0.2595984914723565, "scale": 0.002060305487875845, "original_dtype": "float32"}}, {"name": "conv2d_14/bias", "shape": [64], "dtype": "float32", "quantization": {"dtype": "uint8", "min": -0.00726956309495019, "scale": 5.8625508830243465e-05, "original_dtype": "float32"}}, {"name": "conv2d_15/kernel", "shape": [1, 1, 64, 384], "dtype": "float32", "quantization": {"dtype": "uint8", "min": -0.21454621325520906, "scale": 0.00168934026185204, "original_dtype": "float32"}}, {"name": "conv2d_16/kernel", "shape": [1, 1, 384, 64], "dtype": "float32", "quantization": {"dtype": "uint8", "min": -0.2096828978435666, "scale": 0.0016510464397131229, "original_dtype": "float32"}}, {"name": "conv2d_16/bias", "shape": [64], "dtype": "float32", "quantization": {"dtype": "uint8", "min": -0.004486488222199328, "scale": 4.154155761295674e-05, "original_dtype": "float32"}}, {"name": "conv2d_17/kernel", "shape": [1, 1, 64, 384], "dtype": "float32", "quantization": {"dtype": "uint8", "min": -0.21171207328637442, "scale": 0.0017790930528266758, "original_dtype": "float32"}}, {"name": "conv2d_18/kernel", "shape": [1, 1, 384, 64], "dtype": "float32", "quantization": {"dtype": "uint8", "min": -0.22080608588807724, "scale": 0.0017664486871046179, "original_dtype": "float32"}}, {"name": "conv2d_18/bias", "shape": [64], "dtype": "float32", "quantization": {"dtype": "uint8", "min": -0.0047163533704245785, "scale": 3.8344336344915275e-05, "original_dtype": "float32"}}, {"name": "conv2d_19/kernel", "shape": [1, 1, 64, 384], "dtype": "float32", "quantization": {"dtype": "uint8", "min": -0.2343325138092041, "scale": 0.0017230331897735596, "original_dtype": "float32"}}, {"name": "conv2d_2/kernel", "shape": [1, 1, 32, 16], "dtype": "float32", "quantization": {"dtype": "uint8", "min": -0.4437114824266995, "scale": 0.003607410426233329, "original_dtype": "float32"}}, {"name": "conv2d_2/bias", "shape": [16], "dtype": "float32", "quantization": {"dtype": "uint8", "min": -0.035083632010455224, "scale": 0.00031047461956155065, "original_dtype": "float32"}}, {"name": "conv2d_20/kernel", "shape": [1, 1, 384, 64], "dtype": "float32", "quantization": {"dtype": "uint8", "min": -0.22526967034620396, "scale": 0.0017878545265571743, "original_dtype": "float32"}}, {"name": "conv2d_20/bias", "shape": [64], "dtype": "float32", "quantization": {"dtype": "uint8", "min": -0.0034707414862864155, "scale": 2.6494209818980272e-05, "original_dtype": "float32"}}, {"name": "conv2d_21/kernel", "shape": [1, 1, 64, 384], "dtype": "float32", "quantization": {"dtype": "uint8", "min": -0.2304322798462475, "scale": 0.00184345823876998, "original_dtype": "float32"}}, {"name": "conv2d_22/kernel", "shape": [1, 1, 384, 96], "dtype": "float32", "quantization": {"dtype": "uint8", "min": -0.2281865360690098, "scale": 0.0018254922885520785, "original_dtype": "float32"}}, {"name": "conv2d_22/bias", "shape": [96], "dtype": "float32", "quantization": {"dtype": "uint8", "min": -0.005716230574191785, "scale": 5.1965732492652594e-05, "original_dtype": "float32"}}, {"name": "conv2d_23/kernel", "shape": [1, 1, 96, 576], "dtype": "float32", "quantization": {"dtype": "uint8", "min": -0.20260243550235152, "scale": 0.0015952947677350512, "original_dtype": "float32"}}, {"name": "conv2d_24/kernel", "shape": [1, 1, 576, 96], "dtype": "float32", "quantization": {"dtype": "uint8", "min": -0.17954227643854478, "scale": 0.0014838204664342543, "original_dtype": "float32"}}, {"name": "conv2d_24/bias", "shape": [96], "dtype": "float32", "quantization": {"dtype": "uint8", "min": -0.004046539465586345, "scale": 3.161358957489332e-05, "original_dtype": "float32"}}, {"name": "conv2d_25/kernel", "shape": [1, 1, 96, 576], "dtype": "float32", "quantization": {"dtype": "uint8", "min": -0.22389687101046243, "scale": 0.001670872171719869, "original_dtype": "float32"}}, {"name": "conv2d_26/kernel", "shape": [1, 1, 576, 96], "dtype": "float32", "quantization": {"dtype": "uint8", "min": -0.21014521495968688, "scale": 0.0017808916522007363, "original_dtype": "float32"}}, {"name": "conv2d_26/bias", "shape": [96], "dtype": "float32", "quantization": {"dtype": "uint8", "min": -0.0035509329070063196, "scale": 2.9591107558385997e-05, "original_dtype": "float32"}}, {"name": "conv2d_27/kernel", "shape": [1, 1, 96, 576], "dtype": "float32", "quantization": {"dtype": "uint8", "min": -0.20938276601772682, "scale": 0.00157430651141148, "original_dtype": "float32"}}, {"name": "conv2d_28/kernel", "shape": [1, 1, 576, 160], "dtype": "float32", "quantization": {"dtype": "uint8", "min": -0.20634553157815747, "scale": 0.0016507642526252598, "original_dtype": "float32"}}, {"name": "conv2d_28/bias", "shape": [160], "dtype": "float32", "quantization": {"dtype": "uint8", "min": -0.003613398846823211, "scale": 3.062202412562043e-05, "original_dtype": "float32"}}, {"name": "conv2d_29/kernel", "shape": [1, 1, 160, 960], "dtype": "float32", "quantization": {"dtype": "uint8", "min": -0.19437438775511348, "scale": 0.0016902120674357694, "original_dtype": "float32"}}, {"name": "conv2d_3/kernel", "shape": [1, 1, 16, 96], "dtype": "float32", "quantization": {"dtype": "uint8", "min": -0.3276700917412253, "scale": 0.002663984485701019, "original_dtype": "float32"}}, {"name": "conv2d_30/kernel", "shape": [1, 1, 960, 160], "dtype": "float32", "quantization": {"dtype": "uint8", "min": -0.19974773421007044, "scale": 0.0015852994778577018, "original_dtype": "float32"}}, {"name": "conv2d_30/bias", "shape": [160], "dtype": "float32", "quantization": {"dtype": "uint8", "min": -0.003624629448441898, "scale": 3.0205245403682486e-05, "original_dtype": "float32"}}, {"name": "conv2d_31/kernel", "shape": [1, 1, 160, 960], "dtype": "float32", "quantization": {"dtype": "uint8", "min": -0.21468992052124994, "scale": 0.0016904718151279524, "original_dtype": "float32"}}, {"name": "conv2d_32/kernel", "shape": [1, 1, 960, 160], "dtype": "float32", "quantization": {"dtype": "uint8", "min": -0.1987110930330613, "scale": 0.001577072166929058, "original_dtype": "float32"}}, {"name": "conv2d_32/bias", "shape": [160], "dtype": "float32", "quantization": {"dtype": "uint8", "min": -0.003254141299711431, "scale": 2.78131735018071e-05, "original_dtype": "float32"}}, {"name": "conv2d_33/kernel", "shape": [1, 1, 160, 960], "dtype": "float32", "quantization": {"dtype": "uint8", "min": -0.2291654993506039, "scale": 0.0017361022678076053, "original_dtype": "float32"}}, {"name": "conv2d_34/kernel", "shape": [1, 1, 960, 320], "dtype": "float32", "quantization": {"dtype": "uint8", "min": -0.20284677270580742, "scale": 0.001733733100049636, "original_dtype": "float32"}}, {"name": "conv2d_34/bias", "shape": [320], "dtype": "float32", "quantization": {"dtype": "uint8", "min": -0.003617672585681373, "scale": 2.4279681783096463e-05, "original_dtype": "float32"}}, {"name": "conv2d_35/kernel", "shape": [1, 1, 320, 1280], "dtype": "float32", "quantization": {"dtype": "uint8", "min": -0.38750308401444383, "scale": 0.0025833538934296255, "original_dtype": "float32"}}, {"name": "conv2d_4/kernel", "shape": [1, 1, 96, 24], "dtype": "float32", "quantization": {"dtype": "uint8", "min": -0.30113972121593996, "scale": 0.0025520315357283048, "original_dtype": "float32"}}, {"name": "conv2d_4/bias", "shape": [24], "dtype": "float32", "quantization": {"dtype": "uint8", "min": -0.012759525285047642, "scale": 0.00011192566039515476, "original_dtype": "float32"}}, {"name": "conv2d_5/kernel", "shape": [1, 1, 24, 144], "dtype": "float32", "quantization": {"dtype": "uint8", "min": -0.30086157111560596, "scale": 0.002296653214622946, "original_dtype": "float32"}}, {"name": "conv2d_6/kernel", "shape": [1, 1, 144, 24], "dtype": "float32", "quantization": {"dtype": "uint8", "min": -0.3100184258292703, "scale": 0.0025411346379448385, "original_dtype": "float32"}}, {"name": "conv2d_6/bias", "shape": [24], "dtype": "float32", "quantization": {"dtype": "uint8", "min": -0.012914199162932004, "scale": 0.0001076183263577667, "original_dtype": "float32"}}, {"name": "conv2d_7/kernel", "shape": [1, 1, 24, 144], "dtype": "float32", "quantization": {"dtype": "uint8", "min": -0.2788113463158701, "scale": 0.0021782136430927353, "original_dtype": "float32"}}, {"name": "conv2d_8/kernel", "shape": [1, 1, 144, 32], "dtype": "float32", "quantization": {"dtype": "uint8", "min": -0.28808488915948305, "scale": 0.0022863880092022465, "original_dtype": "float32"}}, {"name": "conv2d_8/bias", "shape": [32], "dtype": "float32", "quantization": {"dtype": "uint8", "min": -0.009217022644246326, "scale": 0.000118166956977517, "original_dtype": "float32"}}, {"name": "conv2d_9/kernel", "shape": [1, 1, 32, 192], "dtype": "float32", "quantization": {"dtype": "uint8", "min": -0.27523019220314776, "scale": 0.002053956658232446, "original_dtype": "float32"}}, {"name": "dense/kernel", "shape": [1280, 1], "dtype": "float32", "quantization": {"dtype": "uint8", "min": -0.07960405200719833, "scale": 0.0010613873600959778, "original_dtype": "float32"}}, {"name": "dense/bias", "shape": [1], "dtype": "float32", "quantization": {"dtype": "uint8", "min": 0.10007622838020325, "scale": 1.0, "original_dtype": "float32"}}, {"name": "depthwise_conv2d/depthwise_kernel", "shape": [3, 3, 32, 1], "dtype": "float32", "quantization": {"dtype": "uint8", "min": -0.22045697470506032, "scale": 0.0018525796193702548, "original_dtype": "float32"}}, {"name": "depthwise_conv2d/bias", "shape": [32], "dtype": "float32", "quantization": {"dtype": "uint8", "min": -0.05260428076281267, "scale": 0.0003955209079910727, "original_dtype": "float32"}}, {"name": "depthwise_conv2d_1/depthwise_kernel", "shape": [3, 3, 96, 1], "dtype": "float32", "quantization": {"dtype": "uint8", "min": -0.18724133372306825, "scale": 0.0013568212588628134, "original_dtype": "float32"}}, {"name": "depthwise_conv2d_1/bias", "shape": [96], "dtype": "float32", "quantization": {"dtype": "uint8", "min": -0.04174532212463079, "scale": 0.00037272609039848924, "original_dtype": "float32"}}, {"name": "depthwise_conv2d_10/depthwise_kernel", "shape": [3, 3, 384, 1], "dtype": "float32", "quantization": {"dtype": "uint8", "min": -0.12599557129775776, "scale": 0.000961798254181357, "original_dtype": "float32"}}, {"name": "depthwise_conv2d_10/bias", "shape": [384], "dtype": "float32", "quantization": {"dtype": "uint8", "min": -0.030550414170412456, "scale": 0.00022299572387162378, "original_dtype": "float32"}}, {"name": "depthwise_conv2d_11/depthwise_kernel", "shape": [3, 3, 576, 1], "dtype": "float32", "quantization": {"dtype": "uint8", "min": -0.11512673470903845, "scale": 0.0009514606174300699, "original_dtype": "float32"}}, {"name": "depthwise_conv2d_11/bias", "shape": [576], "dtype": "float32", "quantization": {"dtype": "uint8", "min": -0.02959962288538615, "scale": 0.00021764428592195697, "original_dtype": "float32"}}, {"name": "depthwise_conv2d_12/depthwise_kernel", "shape": [3, 3, 576, 1], "dtype": "float32", "quantization": {"dtype": "uint8", "min": -0.12383942206700643, "scale": 0.001040667412327785, "original_dtype": "float32"}}, {"name": "depthwise_conv2d_12/bias", "shape": [576], "dtype": "float32", "quantization": {"dtype": "uint8", "min": -0.022422170609820123, "scale": 0.00019001839499847563, "original_dtype": "float32"}}, {"name": "depthwise_conv2d_13/depthwise_kernel", "shape": [3, 3, 576, 1], "dtype": "float32", "quantization": {"dtype": "uint8", "min": -0.1275325908380396, "scale": 0.0010121634193495208, "original_dtype": "float32"}}, {"name": "depthwise_conv2d_13/bias", "shape": [576], "dtype": "float32", "quantization": {"dtype": "uint8", "min": -0.026893250205937556, "scale": 0.00022411041838281295, "original_dtype": "float32"}}, {"name": "depthwise_conv2d_14/depthwise_kernel", "shape": [3, 3, 960, 1], "dtype": "float32", "quantization": {"dtype": "uint8", "min": -0.17229470260003035, "scale": 0.001148631350666869, "original_dtype": "float32"}}, {"name": "depthwise_conv2d_14/bias", "shape": [960], "dtype": "float32", "quantization": {"dtype": "uint8", "min": -0.03039640141468422, "scale": 0.0002713964412025377, "original_dtype": "float32"}}, {"name": "depthwise_conv2d_15/depthwise_kernel", "shape": [3, 3, 960, 1], "dtype": "float32", "quantization": {"dtype": "uint8", "min": -0.18936720966708426, "scale": 0.0011339353872280495, "original_dtype": "float32"}}, {"name": "depthwise_conv2d_15/bias", "shape": [960], "dtype": "float32", "quantization": {"dtype": "uint8", "min": -0.03457849244861042, "scale": 0.00027443247975087636, "original_dtype": "float32"}}, {"name": "depthwise_conv2d_16/depthwise_kernel", "shape": [3, 3, 960, 1], "dtype": "float32", "quantization": {"dtype": "uint8", "min": -0.16098296011195465, "scale": 0.00099372197599972, "original_dtype": "float32"}}, {"name": "depthwise_conv2d_16/bias", "shape": [960], "dtype": "float32", "quantization": {"dtype": "uint8", "min": -0.0718920731223097, "scale": 0.0005247596578270782, "original_dtype": "float32"}}, {"name": "depthwise_conv2d_2/depthwise_kernel", "shape": [3, 3, 144, 1], "dtype": "float32", "quantization": {"dtype": "uint8", "min": -0.15519814403618082, "scale": 0.0012030863878773708, "original_dtype": "float32"}}, {"name": "depthwise_conv2d_2/bias", "shape": [144], "dtype": "float32", "quantization": {"dtype": "uint8", "min": -0.04160482936045703, "scale": 0.0003525832996648901, "original_dtype": "float32"}}, {"name": "depthwise_conv2d_3/depthwise_kernel", "shape": [3, 3, 144, 1], "dtype": "float32", "quantization": {"dtype": "uint8", "min": -0.16775593424544616, "scale": 0.001261322813875535, "original_dtype": "float32"}}, {"name": "depthwise_conv2d_3/bias", "shape": [144], "dtype": "float32", "quantization": {"dtype": "uint8", "min": -0.04402594078405231, "scale": 0.00040023582530956643, "original_dtype": "float32"}}, {"name": "depthwise_conv2d_4/depthwise_kernel", "shape": [3, 3, 192, 1], "dtype": "float32", "quantization": {"dtype": "uint8", "min": -0.15759858348790334, "scale": 0.0011098491794922772, "original_dtype": "float32"}}, {"name": "depthwise_conv2d_4/bias", "shape": [192], "dtype": "float32", "quantization": {"dtype": "uint8", "min": -0.03755896284299738, "scale": 0.0003294645863420823, "original_dtype": "float32"}}, {"name": "depthwise_conv2d_5/depthwise_kernel", "shape": [3, 3, 192, 1], "dtype": "float32", "quantization": {"dtype": "uint8", "min": -0.13389286714441637, "scale": 0.0010460380245657529, "original_dtype": "float32"}}, {"name": "depthwise_conv2d_5/bias", "shape": [192], "dtype": "float32", "quantization": {"dtype": "uint8", "min": -0.03185094777567714, "scale": 0.00031535591857106076, "original_dtype": "float32"}}, {"name": "depthwise_conv2d_6/depthwise_kernel", "shape": [3, 3, 192, 1], "dtype": "float32", "quantization": {"dtype": "uint8", "min": -0.14482068641513002, "scale": 0.0010198639888389439, "original_dtype": "float32"}}, {"name": "depthwise_conv2d_6/bias", "shape": [192], "dtype": "float32", "quantization": {"dtype": "uint8", "min": -0.04323281049728393, "scale": 0.00031788831248002894, "original_dtype": "float32"}}, {"name": "depthwise_conv2d_7/depthwise_kernel", "shape": [3, 3, 384, 1], "dtype": "float32", "quantization": {"dtype": "uint8", "min": -0.11844857229905971, "scale": 0.0010211083818884457, "original_dtype": "float32"}}, {"name": "depthwise_conv2d_7/bias", "shape": [384], "dtype": "float32", "quantization": {"dtype": "uint8", "min": -0.034505014165359386, "scale": 0.00028516540632528417, "original_dtype": "float32"}}, {"name": "depthwise_conv2d_8/depthwise_kernel", "shape": [3, 3, 384, 1], "dtype": "float32", "quantization": {"dtype": "uint8", "min": -0.13352357143280555, "scale": 0.0010681885714624443, "original_dtype": "float32"}}, {"name": "depthwise_conv2d_8/bias", "shape": [384], "dtype": "float32", "quantization": {"dtype": "uint8", "min": -0.03658276921978184, "scale": 0.00026318539007037296, "original_dtype": "float32"}}, {"name": "depthwise_conv2d_9/depthwise_kernel", "shape": [3, 3, 384, 1], "dtype": "float32", "quantization": {"dtype": "uint8", "min": -0.12185267326878566, "scale": 0.0010070468865188897, "original_dtype": "float32"}}, {"name": "depthwise_conv2d_9/bias", "shape": [384], "dtype": "float32", "quantization": {"dtype": "uint8", "min": -0.0274419559859762, "scale": 0.00022493406545882132, "original_dtype": "float32"}}]}]}